models/cho_pha_go_5x5.pt (torch, 485736 bytes, 230 tensors)

conv1.weight f4 [16, 17, 3, 3]
000000 18 8f 67 bd d8 96 6f 3b 30 ac 94 bc f4 38 79 bd
       -0.05653295 0.0036558416 -0.018148512 -0.06084533
000010 32 af 15 bd 13 8d cb bd 48 e7 26 bb b3 58 d7 bc
       -0.036544032 -0.09939017 -0.0025467444 -0.026287412
000020 e1 4d 21 bd 18 d5 5d 3d b0 90 22 bc 68 6d 6b bd
       -0.03938091 0.0541583 -0.0099221915 -0.057477385
000030 fb b3 90 bc 6c cd ef bd b1 b7 10 be ce 10 8d 3b
       -0.017663946 -0.11709103 -0.14132573 0.004304982
000040 75 82 9c 3d d4 bd 2e bd d2 90 a2 bd 3c 89 f6 bc
       0.0764207 -0.042661503 -0.079377785 -0.030094735
000050 04 d7 5c bd 0a a0 fb bc f9 a6 84 3d 01 25 3f 3d
       -0.053915992 -0.030715961 0.0647716 0.04666615
000060 7f 8d a0 bc 91 b7 28 bb 46 9a e5 bb 8e 78 cd 3c
       -0.01959872 -0.002574418 -0.007006916 0.025081899
000070 06 a7 4b bb 71 1b 41 bc ee 0b 89 bd a1 bb 8c bd
       -0.0031074896 -0.011786328 -0.066917285 -0.06871725
000080 ff 04 46 bd 68 25 89 3d dc c2 1c bd 58 c0 b4 bc
       -0.04834461 0.06696588 -0.03827177 -0.022064373
000090 19 f0 7a bc 97 46 10 3c d5 34 69 bd ca 11 07 bc
       -0.015316033 0.008805892 -0.05693515 -0.008243987
0000a0 3d b1 d3 3c ca 2d 48 3d 2c f1 e2 3b a0 a3 56 bb
       0.02584135 0.048871793 0.0069257226 -0.0032751337
0000b0 fb 5e 66 3b 28 9c 98 bb 0f 4a 37 bd 18 be 25 bc
       0.0035151828 -0.004657287 -0.044748362 -0.010116123
0000c0 c8 2d 8f bd ab c9 82 bd c1 15 73 bd 82 41 89 3d
       -0.06991154 -0.06386121 -0.059346918 0.06701948
0000d0 6f 43 83 bd 5a 92 43 bd f1 86 b2 bc bd 97 6b bc
       -0.06409346 -0.047746994 -0.02179286 -0.014379439
0000e0 a2 32 86 bd 56 68 27 bc 21 3a 2b 3d 51 c8 af 3d
       -0.06552626 -0.010217747 0.041803483 0.08583129
0000f0 d7 cc b2 bc f4 68 0d 3b 04 85 0d 3d 4b eb 77 ba
       -0.02182619 0.002157745 0.03455068 -0.00094573636
000100 f0 36 10 bd 9b 21 d3 3b e5 ef 85 bd 31 c2 c7 bc
       -0.035208642 0.006443215 -0.06539897 -0.02438459
000110 9e 40 6e bc 73 47 34 3d 31 57 2f bd 98 bc db bc
       -0.014541773 0.04401345 -0.04280776 -0.026823327
000120 e2 a4 df bc 20 7e 82 bc aa 62 4d 3b ef e8 63 bd
       -0.027300302 -0.015929282 0.0031339326 -0.055642065
000130 d5 64 ba 3b b4 7b e7 3c 45 16 6b bc 71 0c cf ba
       0.0056882896 0.028257228 -0.014348571 -0.0015796555
000140 67 a4 3a 3a 9b b5 53 3c 4b 28 05 bc b4 f5 46 ba
       0.0007119835 0.012921716 -0.008127282 -0.0007589713
000150 3e 24 95 bd 10 ba 5f bd ea f8 11 bc 24 3e 27 3d
       -0.07282303 -0.054620802 -0.008909443 0.040830746
000160 ab 39 a5 bc 31 7a dc bc f9 70 98 bc 5c 8c 75 bc
       -0.0201691 -0.026913734 -0.018608557 -0.014987078
000170 56 47 a8 3b 33 87 88 bb 71 af 45 3c 2f 10 ca 3c
       0.005135457 -0.0041665076 0.012065754 0.02466592
000180 c2 76 0a 3d 03 dd 80 bc 09 8f 66 3c a0 9f 88 3c
       0.033804663 -0.015730387 0.014072188 0.016677678
000190 1a 51 3f 3c 82 70 b6 3b d3 84 15 bc 0e 9b d4 bc
       0.011677051 0.005567611 -0.009125906 -0.025952842
0001a0 e7 53 ea bc 28 51 a5 3d 89 68 9e bc 71 95 d6 bc
       -0.02860446 0.0807212 -0.019336956 -0.026194306
0001b0 d0 dc c8 bc 03 21 be 3b ef 5e 94 ba 87 cf 72 bc
       -0.024519354 0.005802275 -0.0011319796 -0.014819986
0001c0 3a 2e 80 3c 2b 2f d5 bc 10 24 b8 3c 01 0f 13 3d
       0.015647043 -0.026023468 0.022478133 0.03590298
0001d0 49 ba 3c 3d 44 74 61 3d 9c 51 ea 3c 4e 09 81 3b
       0.046076093 0.05504252 0.028603368 0.003937877
0001e0 56 2a c4 bc 59 63 6b bd 7f 7c 24 bd 6d ce 9c 3d
       -0.023945969 -0.057467792 -0.04015779 0.0765656
0001f0 72 b3 0f bd 43 5f 2b bd 3e 42 39 bc 40 89 a6 3c
       -0.03508324 -0.041838896 -0.011307297 0.020329118
000200 b5 1c 3f bc d4 70 a1 bc 70 da c6 3c a6 06 6d bc
       -0.011664559 -0.019707121 0.024274081 -0.014466917
000210 f3 80 d8 3b ca fd 92 3c 29 15 70 3c 6b b2 10 3d
       0.006607169 0.017943282 0.0146534825 0.035326403
000220 a0 60 cb 3c 31 0c b1 bc d4 89 cf bb 96 c6 38 bd
       0.024826348 -0.021612259 -0.006333569 -0.04511126
000230 ad 74 85 bc 8a c1 31 3d 1c 7e 98 bc cc 3d 56 bb
       -0.016290987 0.043397464 -0.018614821 -0.0032690642
000240 63 8a dd 3b d5 b2 3d bd f3 0a 28 3b 7c 63 73 3c
       0.0067608817 -0.046313126 0.0025641292 0.014855262
000250 22 e9 03 bd 97 6f ca 3c 79 58 1d bc 1c 4f 3c bd
       -0.032204755 0.024711413 -0.009603613 -0.045973882
000260 c7 e8 a4 bc 25 8b 1e 3e bc 0c d9 3d 2c 18 4b 3e
       -0.020130528 0.15482767 0.10598132 0.1983344
000270 a3 be 0c be f8 95 1b bf ab 37 8d ba 39 95 50 3d
       -0.13744597 -0.6077571 -0.0010774037 0.05092356
000280 15 f3 83 bb aa 0e 80 3d 54 55 c4 3d 14 c2 3d 3e
       -0.0040267804 0.06252797 0.095865875 0.18531066
000290 26 b3 25 3e 70 bf ca be 2a b6 3e bf 3e 72 02 3e
       0.16181621 -0.3959918 -0.7449671 0.12738892
0002a0 84 c6 06 be 5c 49 32 3d 1a 3d d1 3d bb 42 ea 3d
       -0.13161665 0.043526992 0.10216732 0.11438509
0002b0 83 7a 31 3e 54 dc 3e 3d f7 9f 3a 3d 9c f4 6f be
       0.17331891 0.04659684 0.04556271 -0.23433155
0002c0 f8 78 16 3e 31 d1 7e 3d 45 2b 4a 3d c6 5c 80 3b
       0.14694583 0.06221122 0.04935767 0.0039173095
0002d0 15 c9 cf 3b 8e 9b bc bd a5 9a 7f 3d 2c 28 c4 bd
       0.0063411095 -0.09209357 0.06240334 -0.09577975
0002e0 43 a5 33 be 31 0a 92 3d b2 ff 1d 3d 1c 24 6d 3d
       -0.17543511 0.0713085 0.03857393 0.057895765
0002f0 95 53 8e 3c fe 44 ac bc e8 b8 82 3c 37 41 53 b8
       0.01737384 -0.021028992 0.01595731 -5.0367056e-05
000300 30 d9 14 3b 29 63 97 3a bc 26 90 3b 66 08 0e 3d
       0.0022712462 0.0011549938 0.0043991487 0.034675978
000310 ec 9d 9f bc ae bd 01 bc 1f 10 53 3d d5 cf b5 3a
       -0.019484483 -0.007918758 0.051529046 0.0013871143
000320 72 e3 96 3d e6 0d 34 3c be c7 b2 bd a8 97 04 3d
       0.073676005 0.010989642 -0.08729504 0.032371193
000330 15 a9 87 3d 28 f3 c3 3c f6 b9 ff 3c a3 f1 79 3d
       0.06624047 0.023919657 0.031216603 0.06102146
000340 3f 8b 39 3d 63 d0 9f bb ca 64 cf 3c 25 60 a8 bd
       0.04529881 -0.0048771366 0.025316615 -0.08221463
000350 ea f3 11 3d 82 ac 23 3d 54 a8 03 bc f2 d2 81 3c
       0.035633005 0.03995944 -0.008035738 0.015847657
000360 b6 c0 52 3b 99 c9 b6 3c 22 26 ba 39 b6 ec bc bc
       0.0032158322 0.022312926 0.00035505096 -0.023062091
000370 f1 97 11 bd eb 48 13 3b 60 53 b4 3c 58 af 55 3c
       -0.035545293 0.0022473882 0.022012413 0.0130422935
000380 d5 15 6f 3b 60 85 5c 3c 73 be c3 3b 95 49 23 bd
       0.0036481519 0.013459533 0.005973631 -0.039865095
000390 08 85 cb bc 3f c3 bc 3b 29 2c f8 3c ad 68 3b 3b
       -0.024843708 0.00576058 0.030294495 0.0028596327
0003a0 82 e5 64 bc b5 c0 de 3c 69 7a 13 3d 3c 64 43 3d
       -0.013970735 0.0271915 0.03600541 0.047703013
0003b0 da 35 7b bc be 07 2b 3c b8 b1 78 3c e3 86 35 bc
       -0.015332663 0.010438858 0.01517909 -0.011079523
0003c0 ca 1c c4 3d 72 5f 9b 3c 6f f0 16 3d 12 18 8d 3d
       0.095758036 0.01896641 0.03685039 0.06889357
0003d0 93 f3 54 3c 0c a8 df bc c7 28 1f 3c ca 98 93 bd
       0.012997526 -0.02730181 0.009714312 -0.072068766
0003e0 cb 96 38 3d 2f 66 ce 3b f0 9b d3 3b c3 a4 c6 3b
       0.045065682 0.0062988023 0.006457798 0.0060621216
0003f0 cb c9 cc 3c d9 cc 46 bb f9 f5 b9 bb ff de 0d bd
       0.024998566 -0.00303345 -0.005675074 -0.034636494

conv1.bias f4 [16]
000000 4b d1 ab bd 30 07 b4 3e 3a 2a 38 be 00 fd 9a bd
       -0.08389529 0.35161734 -0.17984858 -0.07567787
000010 3c d7 56 bd 35 1e 73 3d 83 e3 42 3e 1e bf d3 bd
       -0.052451357 0.05935498 0.19032101 -0.10339187
000020 5f 05 78 3d 84 02 5e 3e f6 ce 79 bc f7 a4 99 3c
       0.060551997 0.21680647 -0.015247097 0.01875542
000030 77 7f 28 bc 24 90 86 3e 29 99 36 3d 07 64 6e bd
       -0.010284296 0.26281846 0.04457966 -0.058200862

residual_blocks.0.0.weight f4 [16, 16, 3, 3]
000000 78 be 25 3d 2b 2a 16 35 38 67 e3 bb d0 0b 2f 3b
       0.04046485 5.5940717e-07 -0.006939795 0.0026709922
000010 f0 07 eb 3c c9 c9 4d 3d 14 04 e1 3c d8 34 06 3d
       0.028690308 0.050241265 0.027467765 0.03276524
000020 03 d7 18 3d b9 99 dd 3d 82 8f d3 3d 9a 9d b1 3c
       0.037314426 0.10820336 0.10330106 0.021681596
000030 e0 95 00 bd 99 67 e9 3c b7 69 80 bd 48 af 3e 3d
       -0.031392932 0.028491782 -0.062701635 0.04655388
000040 6f 69 41 3d f1 43 5a 3d 86 c5 87 bd 69 80 9e bd
       0.04721969 0.05328745 -0.066294715 -0.07739336
000050 25 6c ed 3c c2 b9 0e be 77 8b 05 be 4d fe 0b 3e
       0.028982231 -0.13938048 -0.13041483 0.13671227
000060 0a 7c 00 bd 56 17 13 bd 9f ca 00 bd 09 b4 c5 bb
       -0.031368293 -0.035910927 -0.031443235 -0.0060334248
000070 d5 ae 6c 3b c1 5a 5b 3c ba 5f 21 3c 78 eb b5 bc
       0.003611495 0.013388337 0.009849483 -0.022207007
000080 e4 5d 9f bc 49 f5 86 3b cb d4 03 3d 3c 38 0c 3e
       -0.01945395 0.0041185957 0.032185357 0.13693327
000090 d3 c5 88 3d 42 e1 52 3c 9c 37 f7 bc e9 93 81 bc
       0.06678357 0.012871088 -0.030177884 -0.0158176
0000a0 34 88 b4 bc 34 28 1b bd 16 91 32 bd 41 fc 96 3d
       -0.022037603 -0.037880138 -0.043595396 0.07372332
0000b0 f7 fb 6d 3c ac 31 3d bd fc a8 9e bd f3 a3 dd 3b
       0.014525405 -0.04618995 -0.07747075 0.006763929
0000c0 56 49 a8 3d 46 3b b6 3c 4b 1f bc bc b3 af eb bc
       0.08217113 0.02224506 -0.02296414 -0.028770303
0000d0 15 2c 91 bb 05 7f 0a 3c 02 ed a5 3d fa 3e 80 3c
       -0.004430304 0.008453135 0.08101846 0.01565503
0000e0 7f cf e3 bc 15 40 49 3d 14 c8 0c bd d4 7d 0e be
       -0.027808903 0.04913338 -0.034370497 -0.13915187
0000f0 0a d4 28 3e 78 03 cf 3c 45 9e 92 3c e7 6e 8f bd
       0.16487136 0.025270209 0.017897734 -0.07003575
000100 d4 ba 83 3c b7 fd 59 3d cf 67 01 bb cb aa be 3d
       0.016080298 0.053220477 -0.0019745713 0.0930992
000110 ad 7e 53 bc 6c 5b 9c b8 4a 37 99 bc 7e 99 65 3d
       -0.01290862 -7.455688e-05 -0.018703122 0.056054585
000120 7b 76 3d bd 93 e9 90 3d ef 46 11 bd 15 d6 3b bd
       -0.04625557 0.07075801 -0.03546804 -0.04585846
000130 f9 ef f0 3b 22 3d b8 bd b5 93 dc bd 84 47 2e 3d
       0.0073528257 -0.08996035 -0.107703604 0.04254867
000140 db 21 23 3d d5 ce e8 3d 26 a5 85 bc a7 70 79 3d
       0.03982721 0.11367575 -0.0163141 0.06089845
000150 b2 26 d8 3d e9 ad 81 bc 34 09 47 bc 25 b3 12 3e
       0.105542555 -0.015829997 -0.01214819 0.1432615
000160 d2 54 a7 b9 02 32 10 bd ec 35 a8 3c 62 ba 6b 3d
       -0.00031915918 -0.03520394 0.020533524 0.057550795
000170 d8 c7 14 3d d0 f7 eb 3c fa fc 85 38 39 2d 14 3d
       0.0363234 0.02880469 6.389055e-05 0.03617594
000180 3e a0 24 bc 6e 63 d4 bc 73 12 d1 3d c1 1d 3a bd
       -0.01004797 -0.025926318 0.10208597 -0.04543853
000190 d1 c8 47 bd 0b 51 ad bd ae 9c ce 3b 03 63 23 bc
       -0.048775498 -0.08462723 0.006305299 -0.009972337
0001a0 fb 34 c3 3c b3 e7 6f 3c c0 de 2d bd 23 69 d1 bc
       0.023828974 0.014642644 -0.04244876 -0.025562828
0001b0 5e d4 d8 39 c1 4d ae 3b 33 66 13 3c 93 b7 0e b8
       0.00041356956 0.0053193276 0.008996534 -3.4026405e-05
0001c0 f2 69 3c 3a e1 29 26 3c 1b b2 ab 3a b6 f1 b9 3b
       0.0007187418 0.010141821 0.0013099344 0.005674566
0001d0 1d 8d 1f 3c 28 0d ee 3c 47 78 a2 bb c6 72 bf 3c
       0.009738234 0.029059008 -0.004958186 0.023370158
0001e0 c9 74 e3 3d d8 06 7a bb d0 f2 2d 3d 6e 9f 5a 3d
       0.111062594 -0.0038151052 0.042467892 0.0533747
0001f0 0c 9c 75 bd f4 fb df bc 93 9e 2a bd 43 b3 f5 bc
       -0.05996327 -0.02734182 -0.041655134 -0.029992705
000200 b9 b2 a5 3c 98 49 b8 bd b3 bf cf bd 95 e5 3d 3b
       0.020226823 -0.08998412 -0.101439856 0.0028975953
000210 6b b4 cf 3c f1 ba af bc 84 90 82 bd 5a 1c 5b 39
       0.025354585 -0.021451445 -0.063752204 0.0002089603
000220 35 4f e7 3c 51 7c f5 bb 80 56 c3 3c 38 4b ba 3c
       0.028236011 -0.0074916263 0.023844957 0.022740945
000230 ab 25 8e 3d 77 d8 2a 3c f8 31 10 3d ab db a0 bc
       0.06940778 0.010427586 0.035203904 -0.019635996
000240 d3 40 41 ba 30 b3 64 3b ff 46 16 bc c2 c9 e8 bc
       -0.0007372025 0.0034896843 -0.0091722 -0.028416518
000250 2a fa 86 bc 32 70 20 bd 75 42 f2 ba d6 0a 00 3d
       -0.01647671 -0.039169498 -0.001848294 0.031260334
000260 e4 77 a9 3c 2e 5e 19 bd 26 3c 9d 3c d6 7d 28 bd
       0.020687051 -0.037443332 0.01919372 -0.04113563
000270 b7 5f 09 3d 4f 6a 00 be 31 b3 07 bd 33 17 cf 3d
       0.033538546 -0.12540554 -0.033129875 0.10111847
000280 77 f0 8f bd 08 bc 6e 3d 8e 31 a9 bd 21 4e 03 bd
       -0.07028287 0.05828479 -0.08261405 -0.03205693
000290 a1 e2 8b bd 92 37 bc bc 78 3d eb 3d e8 f9 b7 bb
       -0.068303354 -0.022975717 0.114863336 -0.005614508
0002a0 b8 6b c4 bd 99 52 db 3d 27 10 c4 bd 28 38 21 bd
       -0.09590858 0.10709114 -0.09573393 -0.039360195
0002b0 e3 90 15 bd c6 7b 1e bd 99 2e fc 3b 5a 79 f3 bb
       -0.036515128 -0.03869226 0.0076959846 -0.0074302377
0002c0 28 85 fc bb 02 04 b7 3d c1 40 67 3c b7 15 82 3c
       -0.007706303 0.08936311 0.01411456 0.015879495
0002d0 e7 f5 d6 bd a6 24 ca 3d 0e c5 15 be 89 73 0b 3d
       -0.10496121 0.098702714 -0.14625952 0.03404573
0002e0 f2 f5 93 bc 6d e5 c9 bc fd 1a 8f 3d 55 e4 3d bc
       -0.018061612 -0.024645532 0.069875695 -0.011590083
0002f0 fa 3d 4d bd b9 e2 3d 3a 53 f7 4e 3c ce 71 b8 3c
       -0.050107934 0.0007243562 0.012632209 0.022515204
000300 f7 56 5d 3d ef e2 20 3c 73 0a 97 bd a2 ff 43 3d
       0.054038014 0.00981973 -0.0737504 0.047851212
000310 87 18 31 be ef 5e 9f bd 0b f3 20 bc fb d8 17 3e
       -0.17294513 -0.07781779 -0.009823571 0.14828865
000320 d4 13 85 bd c4 ba b3 b9 d8 bf be 3d 25 c5 5b 3c
       -0.064979225 -0.00034280692 0.09313935 0.013413702
000330 c2 ec 20 3e 5f e4 b5 bd 70 9c 9c 3c 82 4d dc 3c
       0.15715316 -0.08881449 0.019117564 0.026892427
000340 d9 05 39 3d 93 9d c8 3b 49 d8 fa 3b e9 d1 d2 3c
       0.045171592 0.0061223 0.0076551777 0.025734859
000350 b6 75 9b bc fd e9 73 bb 7c 3e da bb 6c c5 c5 3c
       -0.018977027 -0.0037218325 -0.0066602807 0.02414199
000360 57 4f a9 3b d0 64 ff 3c 06 a9 84 3c 30 4f c2 3d
       0.0051669287 0.031176 0.016193878 0.0948776
000370 bd c6 1b 3d 65 cb f0 3b 14 e2 d2 bc 66 8c 9c 3d
       0.03803133 0.0073484653 -0.025742568 0.076439664
000380 11 c0 62 bd 3c 02 c4 3c b4 77 cc bc 7a 7a 2c ba
       -0.05535895 0.023926847 -0.024959423 -0.000657953
000390 86 50 61 3d 12 a1 bd bd 2c 0d 2f bd 28 21 ec 3d
       0.055008434 -0.09259237 -0.04273717 0.115297616
0003a0 b8 22 02 be b7 86 42 3b d8 9e 82 3d 54 10 b3 bb
       -0.12708557 0.0029682347 0.06377953 -0.005464593
0003b0 11 cc 95 3c 39 cd d0 3b 3f 7e 6b bc b9 46 b9 3b
       0.018285783 0.0063721207 -0.014373361 0.0056541828
0003c0 8c 44 50 3c 01 21 7b ba 2c 91 0e 3d a4 46 f0 39
       0.012711655 -0.0009579808 0.034806415 0.00045829
0003d0 7a 32 d7 3c 91 f5 22 bd d3 2a bb bd bf 0b cb bb
       0.026269186 -0.03978497 -0.091390274 -0.0061964686
0003e0 3a 7d a0 3b 20 76 72 bd 5d 4a 6f bd b3 2e b8 bc
       0.0048977407 -0.059194684 -0.058420528 -0.022483205
0003f0 7d 2b 06 3c be c0 15 39 cf 58 27 bc 07 9a c7 3b
       0.008189079 0.0001428155 -0.010214045 0.0060913595

residual_blocks.0.0.bias f4 [16]
000000 15 a4 9d b5 90 0c 7d b5 4b d4 3b b5 4a 03 5b b4
       -1.1745166e-06 -9.4268125e-07 -6.9971856e-07 -2.0397161e-07
000010 01 f0 15 b7 e4 0a 6b 35 48 e1 85 b6 ee b7 36 b6
       -8.936972e-06 8.756017e-07 -3.989935e-06 -2.7227175e-06
000020 41 be 41 b6 e3 0b 1d 36 c2 77 4e b6 4a b1 e5 b5
       -2.8869983e-06 2.3401742e-06 -3.07661e-06 -1.7113427e-06
000030 e7 a6 aa 35 af ce 85 b5 80 a4 63 35 a4 3b f6 b5
       1.2714562e-06 -9.969425e-07 8.480347e-07 -1.8345786e-06

residual_blocks.0.1.weight f4 [16]
000000 bd 2f a1 3e f1 e0 b4 3e dd 1b 9a 3e 44 a5 fb 3d
       0.31481734 0.35327867 0.30099383 0.12287381
000010 fd 15 71 3f e2 fb b8 3e ae e9 e3 3e 90 0f c5 3e
       0.94174176 0.3612967 0.4451422 0.38488436
000020 37 58 bb 3e 05 d3 b2 3e 9c 52 9f 3e 25 04 ab 3e
       0.3659074 0.3492662 0.31117713 0.334016
000030 03 7c 71 3e e0 4f 8f 3e 0c 93 dc 3e a4 c9 b2 3e
       0.23582463 0.27990627 0.43080938 0.34919465

residual_blocks.0.1.bias f4 [16]
000000 85 41 85 bb 5b 59 de bd ec da 5e bd ab cc e6 bd
       -0.0040666484 -0.10856887 -0.054408 -0.11269506
000010 e9 c8 6a 3e 3b f8 0b 3d 44 2a 52 bd 85 56 9c bd
       0.22928204 0.034172278 -0.05130984 -0.0763369
000020 77 2b d0 3c 17 b8 3d 3b 7f 64 c3 bd 0a 61 f7 bc
       0.02541135 0.0028948837 -0.095406525 -0.030197639
000030 5b de 07 be ff cb 14 be c6 e0 6c 3d ec 86 8c bd
       -0.13268416 -0.14530943 0.05783155 -0.06861672

residual_blocks.0.1.running_mean f4 [16]
000000 dd 6f 14 bd 60 14 ee 3d 35 28 9a 3d 75 5a 9f 3d
       -0.036239494 0.1162498 0.075272 0.07780925
000010 9a 9c 36 bf 7a d9 9a bd 86 27 83 be 95 ca b7 be
       -0.71332705 -0.075610116 -0.2561609 -0.35896745
000020 f6 b2 a4 be 35 68 ad 3d 81 85 66 3e 0f fd 59 3e
       -0.32167786 0.084671415 0.22511865 0.2128794
000030 a6 fa 06 bd 9f 49 da 3e c6 3c 8b be 0a c2 57 be
       -0.03295388 0.42634293 -0.27194804 -0.21070114

residual_blocks.0.1.running_var f4 [16]
000000 8b 93 bd 3d 69 9e ca 3d 69 e5 c8 3d 82 9e ca 3c
       0.09256657 0.098934956 0.098093815 0.024733786
000010 4d e9 f0 3e 08 bb 1c 3e 4d 95 bc 3d 86 46 0e 3e
       0.47052994 0.15305722 0.09208164 0.1389409
000020 55 4a cd 3d 6d 6b be 3d 6d 48 c2 3d c2 80 d7 3d
       0.10023943 0.092978336 0.0948647 0.105226055
000030 97 ff 54 3d d9 67 ef 3d e4 3d 1e 3e 94 43 b4 3d
       0.052001562 0.11689729 0.15453297 0.08801952

residual_blocks.0.3.weight f4 [16, 16, 3, 3]
000000 07 62 c6 bc 35 33 38 bd f9 7a 32 bd 87 74 7c 3c
       -0.024216665 -0.04497071 -0.043574307 0.015408642
000010 11 58 3e 3c 47 b2 e0 bb 3b e1 8a bd 6a 9f 70 bc
       0.011617676 -0.00685719 -0.067812406 -0.014686445
000020 15 16 1c bd 28 a1 7c 3c c5 ae 70 bc 6a ee 8a bb
       -0.038106997 0.015419282 -0.014690106 -0.004239847
000030 4b 95 d8 bc 96 e8 5f bd e2 7f 52 bd 79 87 fa bc
       -0.026438376 -0.05466517 -0.05139149 -0.030582177
000040 ec 87 7c 3c b5 dd 5b bd c6 40 7a bd 69 94 9f bc
       0.015413266 -0.053678233 -0.06109693 -0.019479947
000050 88 a3 36 bc 25 97 fd 3b 6c b6 90 bc f4 e7 ee bd
       -0.011147387 0.007738965 -0.01766511 -0.11665335
000060 70 00 1d bd 6e 3e 12 3d 11 0f b8 3d 83 03 84 ba
       -0.038330495 0.03570407 0.08987249 -0.0010071847
000070 a9 f6 93 bc 5d 28 d0 bc 68 20 14 3b 75 ad 34 bc
       -0.018061953 -0.025409872 0.0022602323 -0.0110276835
000080 d4 e9 86 3c 0e 77 f3 bb 3e 85 25 bc c1 92 47 bc
       0.01646892 -0.007429964 -0.010102568 -0.012180985
000090 f8 4c 08 bc 3f 45 07 be 45 84 97 bd f9 bf 8b 3d
       -0.008319132 -0.13210009 -0.07398275 0.06823725
0000a0 29 bc f0 bd db e0 a1 bd 6e 7e 8d bd 76 a7 93 3d
       -0.11754639 -0.07904216 -0.0690888 0.07209675
0000b0 84 47 2f 3e 3f 6f ba bc ed 3f 62 bd e9 85 eb 3a
       0.17117125 -0.022758124 -0.055236746 0.0017968985
0000c0 06 b7 07 3d 9e e6 0b 3c 23 da c2 bd df d2 be bd
       0.03313353 0.00853887 -0.095142625 -0.09317564
0000d0 d5 e1 2b bc 33 7b 02 3d d1 59 6a bd 43 e3 97 bd
       -0.010490854 0.031855773 -0.05721456 -0.074163936
0000e0 dd 2b a6 3c cd d7 e7 bd 73 0a ca bc dc cf 00 be
       0.020284588 -0.113204576 -0.024663186 -0.12579292
0000f0 79 fc d3 3c 6b 5f e8 bc e6 2e eb 3a c7 57 3d 3d
       0.025877224 -0.028365811 0.0017943054 0.04622629
000100 c2 56 c0 3d 7c e1 6a 3c d2 6a 95 3c 21 08 ad 3d
       0.09391548 0.014335986 0.018239412 0.08448816
000110 2f 66 bc bc 74 b7 c1 3d 25 b3 c6 3c 2b b5 d8 bc
       -0.022997944 0.09458819 0.024255345 -0.026453575
000120 21 cf f2 3b 37 ec c7 bb 71 62 68 bd 09 13 6d bd
       0.0074099456 -0.006101157 -0.056734506 -0.05787948
000130 1e a5 b6 bd c4 82 56 bb dc 0d c1 3c f1 0a 9d 3d
       -0.08918212 -0.003273175 0.023566179 0.076681025
000140 fd a6 a6 3d ac 0b 3d bd 24 f2 4b bc 77 d5 83 bc
       0.08137319 -0.04615371 -0.012447868 -0.016092999
000150 0a 9d f1 bc 0a fd a1 bd 93 4b 97 bc f3 f2 eb bc
       -0.029493827 -0.079095915 -0.018468654 -0.02880237
000160 f4 d8 96 bc 63 eb 5a bc 9e 83 73 bb 3a 7f 31 bd
       -0.018413998 -0.013361785 -0.0037157307 -0.043334223
000170 42 a8 95 bc 0b 37 c5 bc f2 ca 1d bd 9e ac f0 bc
       -0.018268708 -0.024074098 -0.03852362 -0.029379185
000180 19 be 84 3c 6b 2c 30 3c fb b9 92 3d 02 d4 ef bc
       0.016203927 0.010752778 0.07164379 -0.029275898
000190 f7 b8 14 3b 07 5d 78 3c 65 73 cf bd 95 df 1f 3d
       0.0022693255 0.015158898 -0.10129432 0.039031584
0001a0 b8 c0 91 3d 7e 9b 16 3c f4 c7 38 bd 33 1e 47 3d
       0.07116836 0.009192346 -0.045112565 0.048612785
0001b0 eb c5 f5 bc 15 6d 64 bd 1d 48 c8 bc bf 0f b6 bc
       -0.030001601 -0.05576809 -0.024448449 -0.022224305
0001c0 67 16 46 3d 05 98 35 3d 39 5a 5b bd a9 4e 44 bd
       0.04836121 0.04433443 -0.05355284 -0.04792658
0001d0 ce e4 35 3c 2e 1a b5 bb e6 fa 5d bd 9a e8 82 3c
       0.011101915 -0.0055268025 -0.054194354 0.015980054
0001e0 fb 45 d6 bc b9 5e c6 bc 3a f0 d1 3b fa 5e 08 3c
       -0.026156416 -0.02421509 0.006406811 0.008323425
0001f0 40 89 df 3c 75 a5 26 3b a2 48 b3 bb 4b 8a b3 bd
       0.027287126 0.002542821 -0.005471305 -0.08766612
000200 a7 4f 1c be d6 ad 2d 3c 5a 21 4f bd fe 59 8e 3d
       -0.1526476 0.010600528 -0.050568916 0.069507584
000210 87 4f c3 bd 41 2c 1d be e8 5b cb 3d d8 81 99 3d
       -0.09536653 -0.15348913 0.09929639 0.07495469
000220 5a 74 fe 3c a7 52 bb 3d f4 e3 1c bd 64 73 48 bd
       0.03106134 0.09146624 -0.03830333 -0.04893817
000230 c1 6a 37 3c 95 d0 60 3d a3 0b 07 bd 2b 2b 01 3a
       0.011194886 0.05488642 -0.032970082 0.0004927392
000240 dd 0f f7 bc a2 e7 d2 bc 14 44 0c bc f4 de c8 bd
       -0.030158931 -0.025745217 -0.008561153 -0.0980815
000250 a3 b7 7e bc 3a 3f 50 3d 80 aa 3e 3c cd 65 84 bc
       -0.015546712 0.050841548 0.01163733 -0.016161824
000260 ed 48 c9 bd 99 c4 b2 3d 25 10 1d be 2d a3 84 3d
       -0.098283626 0.08728904 -0.1533819 0.06476436
000270 fe 81 3d bd dc d2 c0 bc 6f c4 77 bd 62 e9 92 bd
       -0.04626655 -0.023538046 -0.060490068 -0.071734205
000280 ba 7c 66 bd 4f d5 55 bd b4 f3 0f 3d 20 e1 4a be
       -0.056271292 -0.05220538 0.035144523 -0.19812441
000290 3e 62 33 bd 29 04 c2 3c ad 7e 96 3d 28 f7 40 bd
       -0.043794863 0.023683624 0.0734838 -0.047110707
0002a0 23 61 23 3d c8 14 b0 bc 26 63 d5 3d 1f 56 c5 3c
       0.03988756 -0.021494284 0.10419302 0.024088917
0002b0 dc ce 66 bd 71 1c 20 bd 6a 2f 7c 3d ce 15 5a bc
       -0.05634962 -0.039089624 0.061568655 -0.013310863
0002c0 c9 7f ac bc 25 d2 0f bc ca e3 01 3c a0 09 21 bc
       -0.021057026 -0.00877813 0.007927844 -0.009828955
0002d0 df 2d 72 3c 0c 4b 97 3d 80 37 d0 bb 69 e5 1b 3e
       0.014781444 0.07387361 -0.0063542724 0.15224232
0002e0 d3 f7 d8 3e 50 14 e2 3d 11 bc e9 3c e4 26 d5 3d
       0.42376575 0.110390306 0.02853206 0.104078084
0002f0 28 0e 85 bd 2a c9 f9 3c e9 4e 0b 3e 2a 9e 59 3d
       -0.06496841 0.03049143 0.1360432 0.053129353
000300 61 96 92 3c 89 69 e3 3d 41 a1 b6 bd 8d 5e 2a 3c
       0.017893972 0.111041136 -0.089174755 0.010398519
000310 8c f9 25 be e6 89 d8 bc fc 52 b6 3d 1f 97 f0 bc
       -0.16208476 -0.026432943 0.08902547 -0.029368935
000320 96 a0 0f bd d2 59 a2 3a 67 d6 77 be fd 69 9f bc
       -0.035065256 0.0012386388 -0.24202882 -0.019459719
000330 03 52 94 3d ed df ef bd 28 fb 0a be 9b 16 3c bd
       0.07242205 -0.11712632 -0.13572371 -0.045919996
000340 db a3 a2 ba 8f 13 9f bc 23 2b 4b 3d 28 57 b1 bd
       -0.0012408452 -0.019418506 0.049601685 -0.08659202
000350 bb 02 be bd 93 34 40 3d 4a f8 28 bd 53 d6 f6 bc
       -0.092778645 0.04692514 -0.041252412 -0.030131495
000360 0f a2 fd bc f2 82 f8 3b f8 32 75 bc f6 0d 71 bd
       -0.030961065 0.0075839693 -0.014965765 -0.058851205
000370 bc 42 ca 3d 84 89 48 3c 94 00 36 bb 64 21 55 3d
       0.0987601 0.0122398175 -0.002777134 0.052033797
000380 9d 8f 16 3b 9b d6 96 bd 52 fd 93 3d 93 c8 0d 3e
       0.0022973784 -0.073651515 0.072260514 0.13846044
000390 5d 06 8b 3d 8f 84 b1 3d 4a 22 74 be 7d 9b 99 3d
       0.06788323 0.08667862 -0.23841205 0.0750036
0003a0 14 b1 8b bc 8b 5d 16 bd 98 68 ab bd 89 cf 2d 3d
       -0.01705221 -0.036710303 -0.08369559 0.04243425
0003b0 30 c8 02 be f3 ec 94 3d e6 30 b8 bd e0 aa ba 3d
       -0.12771678 0.07271757 -0.08993702 0.09114623
0003c0 c7 ac de bd d2 3d 02 bd e2 e0 18 bd e1 15 d6 3c
       -0.108727984 -0.031797238 -0.03732384 0.02613348
0003d0 ce b7 02 3e f8 92 a6 bc 20 4e 25 be 44 37 7d be
       0.12765428 -0.020333752 -0.16143084 -0.24728113
0003e0 a9 c8 e6 3c 70 0d 3a 3d f0 23 90 3d e9 5b 9a bc
       0.028171854 0.04542297 0.070381045 -0.018842654
0003f0 a3 b8 0f bb ac cf 04 3d ca 14 27 bd 1b e4 79 bd
       -0.002193012 0.032424614 -0.04079131 -0.061008554

residual_blocks.0.3.bias f4 [16]
000000 40 4f 0d 37 9c 7b 88 b4 a6 b6 01 b6 55 a5 40 36
       8.422707e-06 -2.5421912e-07 -1.9328813e-06 2.8706465e-06
000010 f5 a2 fe 35 ce c6 0b 34 bf 30 a4 b6 85 e2 7d b6
       1.8971901e-06 1.3017709e-07 -4.8932557e-06 -3.783179e-06
000020 eb 5c 86 b6 70 d1 a0 b6 e1 64 6a b6 3d a9 a8 36
       -4.0043283e-06 -4.7927533e-06 -3.4927436e-06 5.026492e-06
000030 2b 8b 8a 36 87 37 ba 35 8c 89 8b b6 62 43 38 36
       4.128922e-06 1.387424e-06 -4.1585354e-06 2.7457359e-06

residual_blocks.0.4.weight f4 [16]
000000 59 27 bd 3e e2 7e 6f 3f b2 68 a4 3e a8 5c 06 3f
       0.36944082 0.9355298 0.32111126 0.5248513
000010 f9 42 b3 3e 61 0e 09 3f 9d eb d1 3e 9e a8 f9 3e
       0.35012034 0.53537565 0.4100007 0.48761457
000020 47 9e f3 3e e9 2a f0 3e 72 b9 ec 3e 08 33 e1 3e
       0.47581694 0.46907738 0.46235234 0.43984246
000030 d3 46 16 3f c5 a4 d9 3e 56 57 84 3e fb 73 bd 3e
       0.5870182 0.42508522 0.25847882 0.3700255

residual_blocks.0.4.bias f4 [16]
000000 c4 37 f3 bd 26 02 8f 3e c2 b1 5d be 9d cb 49 3d
       -0.11875871 0.27931327 -0.2164984 0.049266446
000010 0e bb d1 bd 9d 69 c3 bd 9c 22 68 be b8 6f d7 bd
       -0.10240756 -0.095416285 -0.22669452 -0.105193555
000020 81 d2 6d bc 05 fe 04 be 07 ca f5 3b 6e c9 56 bd
       -0.01451552 -0.12987526 0.00750089 -0.052438192
000030 31 26 36 3e ba d4 f2 3c 4f 69 47 be 32 0f a1 bd
       0.17788006 0.029642452 -0.19473766 -0.078642264

residual_blocks.0.4.running_mean f4 [16]
000000 e2 79 89 be 44 b7 6c 3e c7 17 cb bd 5a 45 5c bd
       -0.26850802 0.23116785 -0.099166445 -0.053777076
000010 51 a5 f7 bd a4 ce 9c 3c cd 6b d9 be 74 50 5a bd
       -0.120920785 0.019141503 -0.42465058 -0.053299382
000020 4f 70 83 be a8 e0 02 bd e9 be 80 be 4b 8a bd be
       -0.25671622 -0.03195253 -0.25145653 -0.37019572
000030 b2 9b 43 be c8 e7 14 3e e5 51 4c be 7f 99 81 bd
       -0.19102362 0.14541543 -0.19953115 -0.06328105

residual_blocks.0.4.running_var f4 [16]
000000 7f 89 64 3d eb 5f 9f 3e d5 55 97 3d 0a 81 be 3d
       0.05579519 0.31127867 0.07389418 0.09301956
000010 4f 3a cd 3c 53 98 e5 3d a6 8f 90 3d c8 fb 6e 3d
       0.025052218 0.11210694 0.07058649 0.058345586
000020 14 4c b1 3d f0 79 9c 3d 43 f5 a9 3d a9 7d 9b 3d
       0.08657089 0.07640445 0.08298733 0.07592327
000030 1a e6 fe 3d 11 54 c3 3d c8 f8 17 3d f6 0b 34 3d
       0.12446232 0.09537519 0.03710249 0.04395672

residual_blocks.1.0.weight f4 [16, 16, 3, 3]
000000 3f e1 16 bd e1 c7 7d bc 49 88 3c bd 2e fb 05 bd
       -0.036835905 -0.015489549 -0.04602841 -0.032710247
000010 98 c8 a4 3d c5 89 1e 3d 83 d3 92 3d 3b e4 39 bd
       0.08046073 0.038705606 0.07169249 -0.045383673
000020 8e c2 27 3c 37 cf 66 3e 96 2d e8 3c 57 11 db 3c
       0.010239257 0.22539984 0.02834205 0.026741667
000030 c1 a1 3b bc fb bd 29 be 39 55 69 bd d2 a4 06 3d
       -0.011452139 -0.16576378 -0.05696604 0.03287203
000040 64 3a bf bd 4d bf bb bd 49 07 da bd 56 83 9e bd
       -0.09337309 -0.09167347 -0.10645921 -0.07739894
000050 ae 8d 05 bc 90 4b 63 3d 46 ef ae bb 7f a3 25 ba
       -0.008151455 0.055491984 -0.005338582 -0.00063186133
000060 c4 79 81 bc 1f 8b ad 3c 23 9d b3 3c c6 83 18 3c
       -0.015805133 0.021184502 0.021925515 0.009308761
000070 6d 8f b9 bc 2d c9 20 3d 4a 6d 2e bc 52 8b 47 3c
       -0.022651399 0.039254356 -0.010646174 0.012179213
000080 86 e0 54 bc 09 bb 17 3d 85 7f 1e bd c6 cf bd bd
       -0.012992984 0.037043605 -0.03869583 -0.09268145
000090 c1 3f 40 bd 6d 44 90 bd df cb 8c bd 74 8e 5a bd
       -0.0469358 -0.07044301 -0.06874823 -0.05335851
0000a0 89 f4 65 3d 5a 9e 8e bc 3e a6 79 bd 33 96 ee bc
       0.05614141 -0.017409492 -0.060949557 -0.029124355
0000b0 de 74 58 bd ae 73 0c 3d a2 7a 05 3b 35 e7 0d bd
       -0.05284583 0.03429001 0.0020367284 -0.034644324
0000c0 fb 82 af 3d ce 62 d4 bd b5 bb 64 3c 0a 5d a9 bd
       0.085699044 -0.10370408 0.0139607685 -0.08269699
0000d0 8b 28 3d 3d 2c 84 65 b9 a2 03 68 3d 25 d4 c2 3c
       0.046181243 -0.0002188838 0.05664409 0.023782799
0000e0 8a 6b 80 3d d8 d1 ba bd db f8 3d bd cf 90 d7 3d
       0.062705114 -0.09122056 -0.046379905 0.10525667
0000f0 dc c3 3e 3d 41 50 79 3c cf 5b e8 3d 9d dd 09 be
       0.046573505 0.015216888 0.11345636 -0.13463445
000100 42 08 83 bc 34 34 72 bd c3 dd e7 bd 90 c6 8b 3c
       -0.015995149 -0.059131816 -0.113215946 0.017062455
000110 3f 7e 4b bb f4 cf 7a bd 61 64 8b bc 69 a4 d5 bc
       -0.003105059 -0.061233476 -0.017015638 -0.026079373
000120 ef 3e fb 39 c3 19 8d bc f1 80 3c 3c 53 5d 44 be
       0.0004792134 -0.017224198 0.011505351 -0.19176225
000130 a4 a7 3e bd 2c 33 76 bb e5 52 0c 3d f7 0b 03 3d
       -0.046546593 -0.0037567122 0.034258742 0.031993832
000140 3b a2 83 bd 4c f6 4d 3d 9b 44 3a bd 88 ad 6c bd
       -0.064274274 0.050283715 -0.045475584 -0.05778268
000150 60 e1 1d 3d e2 80 5d bd b2 b5 9b 3d 83 a4 1b 3d
       0.038545012 -0.05407799 0.07603015 0.037998687
000160 6b a4 1e be bf 2f db bc be 77 8c bd 90 ee 8f 3d
       -0.15492408 -0.026756166 -0.068587765 0.07027924
000170 ea a4 f5 3c d6 69 e1 3c 8e cb 05 3d 80 b4 0b bd
       0.029985864 0.027516287 0.032664828 -0.034107685
000180 37 e7 1d bc 60 d4 22 3d 1d 2d 02 3d c6 4a f6 bd
       -0.009637645 0.039753318 0.031781305 -0.12025981
000190 64 e4 08 bc 6b f6 76 3d dd 81 2d 3d dc 20 67 3b
       -0.008355234 0.060293596 0.042360175 0.0035267388
0001a0 49 f3 15 ba 33 40 8a bd 53 28 d9 bb 20 23 30 ba
       -0.0005720151 -0.06750526 -0.0066271215 -0.0006719101
0001b0 d1 d9 3b bd 57 50 8d bd 19 3a 04 3d fc a2 01 3b
       -0.045862023 -0.06900089 0.03228197 0.0019780984
0001c0 35 b3 0b 3d 6f a8 66 bd b9 4a 43 3d d5 26 58 3d
       0.034106452 -0.056312975 0.047678683 0.052771408
0001d0 d7 dd aa bd 74 4a ff 3d cc fa 87 ba f5 15 a7 3d
       -0.08343094 0.12465373 -0.0010374426 0.08158485
0001e0 b3 ba c9 3d 7c b2 b2 3c 7b fe 58 bd 7d 4f 45 bc
       0.09850063 0.021813624 -0.052977066 -0.012042877
0001f0 cf eb 2b bd b0 22 f6 3c 1b c5 50 bd c5 b4 5d 3d
       -0.04197293 0.030045837 -0.050969224 0.054127473
000200 b5 f8 fb bb 3b 44 47 bd bb 63 e3 3c 79 63 99 3c
       -0.0076895603 -0.048649054 0.027757516 0.01872419
000210 f5 1a 6c bd 2d 4c d2 bb 4f e0 8f bd b1 ef 42 bd
       -0.057642896 -0.0064177723 -0.07025205 -0.04759187
000220 96 ab c2 bd 96 ee 25 bd 36 74 a7 bc ce 97 c2 bc
       -0.09505384 -0.040510736 -0.020441156 -0.023754027
000230 ca 66 76 3d 6a 6b 5b 3d 53 00 23 bd df 9d 9a bd
       0.06015662 0.053569235 -0.03979523 -0.07549643
000240 ea 06 56 3d 2f 88 d8 bb 9d e9 a7 3c 35 a3 ad bb
       0.052252688 -0.006608031 0.020497138 -0.005298997
000250 6a 03 61 bc 4e 4e eb 3c 64 e3 f9 bc a8 ce 49 bd
       -0.013733724 0.028723862 -0.030503936 -0.04926935
000260 1a 5d 8d 3c 42 13 d3 3c b3 f1 5a 3d ab 48 59 bc
       0.017256308 0.025766019 0.05345316 -0.013261954
000270 d2 4a 9a 3c 5b b3 03 3e d2 0e a6 3d 8e 31 66 bc
       0.018834505 0.12861387 0.081082955 -0.014049901
000280 a0 e0 53 be fa 55 fb bd 7e a6 43 bd bf 58 ff bd
       -0.20691156 -0.12272258 -0.0477662 -0.12468099
000290 03 6b 87 bc 69 58 e0 3d 0c 70 dc bc 8b d2 d3 3c
       -0.01653052 0.10954363 -0.026908897 0.02585723
0002a0 64 20 ec bb 8b 0c c1 3c f2 f5 0c bd 60 e8 c5 3d
       -0.0072060097 0.023565551 -0.03441424 0.09663463
0002b0 c5 75 ab bc 30 e9 a0 3d 9f f6 ba 3c 14 d5 30 bd
       -0.02093018 0.07856977 0.022822676 -0.043171957
0002c0 d9 ac 19 bc 5a 51 07 3d 3c d9 4e bc 70 26 37 3d
       -0.009379589 0.033036567 -0.012625035 0.04471439
0002d0 f8 b2 88 bc 32 b0 27 bd 0a 87 ba 3c 7a eb ed bb
       -0.016686901 -0.040939517 0.02276947 -0.007260737
0002e0 14 ae 7a bd fc 91 4c 3d 6d c5 87 bc c0 a8 50 3c
       -0.06120117 0.04994391 -0.016573632 0.012735546
0002f0 27 58 99 3c f1 8c 21 3e d7 ec 41 3d d7 b0 44 3a
       0.018718792 0.15776421 0.04734501 0.0007503158
000300 9d e9 c9 bd c0 cd 9f 3d 78 5f 8a bd 91 b7 ba 3c
       -0.09859011 0.078029156 -0.067564905 0.02279261
000310 92 06 82 bc fa 92 c0 3b 56 ca de 3c 85 c6 72 bd
       -0.015872274 0.005876896 0.02719609 -0.059271354
000320 e3 41 02 3d f9 b2 e8 3b 59 6a 74 3d 9f 41 59 3a
       0.031801116 0.0071014133 0.059671734 0.00082876714
000330 80 39 ad bd 4a bc d8 3c b0 fc 14 3c f5 b6 88 3d
       -0.08458233 0.02645697 0.0090934485 0.06675521
000340 60 e8 92 bc ae 2f 73 3d cd f3 82 bd 24 11 6c 3c
       -0.01793307 0.059371643 -0.063941576 0.0144083835
000350 1b 32 85 3c c3 ee 27 3d b1 1e f5 bc b8 78 a1 bc
       0.016259244 0.040999185 -0.029921861 -0.019710883
000360 fe 72 e5 bc 08 5e 0a 3d ec 83 a1 3c d8 1f 33 bd
       -0.028008934 0.03378108 0.019716226 -0.04373154
000370 63 73 75 3d 65 e2 98 bc ff fc c2 3b 27 dc c4 bd
       0.059924494 -0.01866264 0.0059505696 -0.09612303
000380 80 03 26 3c 17 f9 de bb 85 cb 9a 3d 06 f3 a4 3d
       0.01013267 -0.006804596 0.075583495 0.080541655
000390 5b f1 f0 3c 9c aa ab 3b bc 06 de 3b 48 ae 61 3d
       0.029411962 0.005238844 0.006775705 0.05509785
0003a0 2b 2c f6 bd 7a fd 27 bd f5 f0 d6 bc 2d eb 0a bd
       -0.12020143 -0.04101322 -0.026237944 -0.033915687
0003b0 cd b6 1c 3d 0f 42 1d 3d 46 ec fc bd b0 99 d0 3d
       0.03826027 0.038393077 -0.12349753 0.101855636
0003c0 0b 21 49 bd 4a 24 d9 3b f5 db 36 bd e2 35 d8 3c
       -0.049103778 0.0066266404 -0.04464336 0.02639288
0003d0 7b 04 d9 bd 35 79 13 bd 3e 02 9d 3d 04 31 cd 3c
       -0.10596558 -0.036004264 0.07666443 0.025047787
0003e0 df 1f 10 3c f9 d7 88 bc 15 e6 d3 3d 19 70 1e 3d
       0.008796661 -0.016704546 0.10346619 0.038681123
0003f0 01 a4 b5 bc 3e c6 87 bd 83 b4 e5 bc 26 4e cb 3d
       -0.02217293 -0.066296086 -0.028040176 0.09927015

residual_blocks.1.0.bias f4 [16]
000000 98 93 ff 35 c8 cc 63 b6 c9 25 1b 36 3b bb a8 b5
       1.9041936e-06 -3.3944834e-06 2.3118794e-06 -1.2571467e-06
000010 3b 6f 5e b5 e7 90 29 b6 e4 a9 d2 35 06 0a e6 b6
       -8.2863306e-07 -2.5267307e-06 1.5695664e-06 -6.855701e-06
000020 5e e9 de 36 50 c3 0c b6 32 30 10 35 51 25 ab 34
       6.643283e-06 -2.0975313e-06 5.3714314e-07 3.1878383e-07
000030 5d 58 ab 35 34 9f bb 35 0e c5 0b 34 30 f1 b3 34
       1.276621e-06 1.397892e-06 1.3017072e-07 3.3516835e-07

residual_blocks.1.1.weight f4 [16]
000000 df b1 c0 3e 65 b8 a2 3e 48 9d 31 3e 46 67 9c 3e
       0.37635705 0.31781307 0.17345154 0.3054754
000010 e9 7e 29 3e 7e 68 aa 3e d6 ce 73 3e 08 4a c1 3e
       0.16552319 0.33282846 0.2380937 0.37751794
000020 33 b4 e8 3e bf dc ac 3e ec 02 21 3e bf 5b 68 3e
       0.4544998 0.33762166 0.15723771 0.22691248
000030 d0 e8 12 3f 3a 0d 41 3e 2a 8f ce bb 7c 31 33 3e
       0.57386494 0.18852702 -0.0063036876 0.17499346

residual_blocks.1.1.bias f4 [16]
000000 b1 9d a1 bd 1e 39 43 be 7b ae 85 bd 49 b8 0f be
       -0.078914054 -0.19064757 -0.0652742 -0.14035143
000010 7c 50 00 be fb e2 4d be e3 90 07 be ea 3e 6a bc
       -0.12530702 -0.20106117 -0.13238864 -0.014297226
000020 98 23 3c be 64 ca 98 bc 16 be c3 bd 66 38 d3 bd
       -0.18372953 -0.018651195 -0.095577404 -0.103134915
000030 30 eb 10 be d2 f2 0a 3c 72 98 1c bc 4e f6 67 bd
       -0.14152217 0.008480744 -0.00955783 -0.05663138

residual_blocks.1.1.running_mean f4 [16]
000000 f0 7f ac be 1c 95 5f 3d 95 7f f9 be ac 66 86 be
       -0.3369136 0.05458556 -0.4873015 -0.26250207
000010 00 5d 09 be ba 99 17 bf 68 dc 22 bd 61 de 61 be
       -0.13414383 -0.59218943 -0.039760977 -0.22057487
000020 74 d7 ef bb 9e 5b 9b be ed 53 7b 3e 45 4f 4b bf
       -0.007319385 -0.30343336 0.24543734 -0.7941783
000030 9f 4a bb be 58 70 d6 be 5e e0 0e bb 6a ea 25 bf
       -0.3658037 -0.41882586 -0.0021801214 -0.6481081

residual_blocks.1.1.running_var f4 [16]
000000 49 50 85 3e 3c 7f 81 3e 50 19 69 3e a9 ba 42 3e
       0.26037815 0.25292385 0.22763562 0.19016518
000010 79 dd c3 3d cd 6d 67 3e 8d 60 20 3e 9d 3b 7b 3e
       0.09563727 0.2260048 0.15661831 0.2453446
000020 72 a7 b3 3e 23 fc 8e 3e 95 b3 4b 3d 93 9b 0e 3e
       0.35088688 0.2792674 0.04973181 0.13926534
000030 8c f9 07 3f d1 a9 33 3e 85 43 bc 3b a9 fe 22 3e
       0.53115153 0.17545249 0.0057453536 0.15917458

residual_blocks.1.3.weight f4 [16, 16, 3, 3]
000000 7b e9 fd bd f4 cc 53 bb 5a 0a a9 bd 4d 39 76 3c
       -0.123980485 -0.0032318207 -0.082539275 0.01502831
000010 0a 81 86 bc 4b a6 20 3d 17 37 c6 3b e9 27 90 bc
       -0.016418952 0.03922109 0.0060490477 -0.017597156
000020 d3 4f 96 bd be 9f 3a bc da 0d 16 3d bd bc 1b 3d
       -0.07339444 -0.011390625 0.036634304 0.03802179
000030 3d 63 ae 3c 6f 0f 05 3d 00 91 fe bc 48 af 81 3b
       0.021287555 0.03248542 -0.031075 0.0039576627
000040 15 3b 6f 3d 85 40 5c 3d ef 2c 0a bc 88 36 8a 3c
       0.058405954 0.053772468 -0.008433565 0.016871706
000050 ae a3 8d 3c d5 cd 03 bd aa cd b4 bc 0b e5 54 bb
       0.017289963 -0.03217872 -0.022070725 -0.0032485153
000060 76 36 ad bc cc c6 f6 bc ec 55 a5 3d 8f aa 4e bd
       -0.021144133 -0.03012409 0.08073029 -0.050455626
000070 8a a3 98 bc af 26 a4 3c 01 f6 60 bd d5 b0 02 bd
       -0.018632669 0.020037977 -0.054922108 -0.03190692
000080 bb d0 e0 3d b2 8c 17 3d bc 33 28 3d 3b ac e1 3c
       0.10977312 0.036999412 0.041064963 0.027547946
000090 c5 66 54 bc f1 80 88 bd 80 46 d0 ba c5 78 a4 bc
       -0.012963955 -0.066652186 -0.0015890151 -0.020077119
0000a0 9d c5 64 3d 10 43 8a 3d 9a d6 aa bd 2b dc 08 bd
       0.05585252 0.067510724 -0.08341713 -0.033413094
0000b0 d8 ae 04 3d 4d 97 80 3d 5f 67 9d bb d5 89 da bd
       0.032393306 0.06278858 -0.0048035826 -0.106708206
0000c0 eb 24 64 bb e4 fd fa 3c e6 29 6d 3e bb 59 86 bc
       -0.0034812044 0.030638643 0.23160514 -0.016400209
0000d0 e7 9e 10 3d b1 f3 9c 3b e8 33 02 bc dc fb 0f 3d
       0.03530779 0.0047897925 -0.007946946 0.0351523
0000e0 17 91 6b 3d f5 12 19 bc 32 12 a1 3c 0a 19 15 bc
       0.057511415 -0.009342899 0.019661997 -0.009100208
0000f0 8e cd 69 bd 31 cc 99 3a 0d b9 c7 bc 29 c7 75 bd
       -0.057080798 0.0011733827 -0.024380231 -0.060004387
000100 66 58 0d 3d fa f2 97 bd 53 dd 98 3d 9b 19 9d 3c
       0.03450813 -0.07419391 0.07464089 0.019177249
000110 81 a4 10 bd bc d1 53 3d 45 86 c2 3d 00 be 86 bb
       -0.035313133 0.05171369 0.09498266 -0.0041120052
000120 77 47 e2 3d fa 75 93 3d d9 16 a1 3d 9f 61 00 bd
       0.11048787 0.072002366 0.07865686 -0.0313431
000130 0d 1c 95 3d 0b 9c 33 bd 92 f0 05 bc 36 8e ae 3d
       0.07280741 -0.043849986 -0.008175032 0.08523218
000140 85 bb 95 bc 4c 0d 55 3d 39 ac 59 3d bf 4c e9 bc
       -0.018277893 0.052014634 0.05314276 -0.028478978
000150 42 27 63 bc b4 4d 4a bd 49 09 84 3d 80 21 83 bd
       -0.01386434 -0.04939051 0.064470835 -0.06402874
000160 42 cd ed bd 48 3b ff 3c d0 de 05 bd e2 cd 61 bc
       -0.116114154 0.031156197 -0.032683194 -0.013781996
000170 dc 6d d0 bc 9d 0c b2 bb ad 7b 89 bd a5 8c 22 bd
       -0.02544301 -0.0054336325 -0.067130424 -0.03968491
000180 b7 24 4a 3c 7a ae 29 bd b9 92 9c bd 46 4a 71 3d
       0.012337855 -0.04142616 -0.076451726 0.058908723
000190 e0 c2 b2 bd 7a 12 c3 3c e0 ab db bc 16 ed 9c 3d
       -0.08728576 0.023812521 -0.026815355 0.07662408
0001a0 b0 db bc 3d 4d 1e c9 3c 99 c4 00 bd 80 d2 71 bd
       0.092215896 0.024550581 -0.03143749 -0.05903864
0001b0 e8 f5 c4 bb b7 82 c1 bd 22 9a 28 bd 9b 65 dc 3c
       -0.0060107596 -0.0944876 -0.041162618 0.026903918
0001c0 d2 d4 71 bd 5b b4 fd bc 19 92 fa 3d 72 e1 e5 3d
       -0.059040852 -0.03096979 0.12234897 0.11224641
0001d0 34 3d 18 3d 13 be 4a bd eb 8f 13 3d ec 3c c8 3c
       0.037167743 -0.049497675 0.036025923 0.024443112
0001e0 11 a5 2c 3d eb e3 3a 3d f8 00 be bd d9 40 23 bd
       0.042149607 0.045627516 -0.092775285 -0.039856765
0001f0 7a 6b c8 3d 5b 78 95 3b 69 59 78 bb a8 a8 16 bc
       0.097861245 0.0045614666 -0.003789509 -0.009195484
000200 94 8b b3 bb 04 15 d9 bb a1 6d dd 3b 30 97 92 bb
       -0.0054792855 -0.0066248197 0.0067574535 -0.0044735894
000210 b3 10 3e bc 3d 0d 14 3c d0 a2 e7 ba 14 ad 37 bd
       -0.011600661 0.009036359 -0.0017672423 -0.044842795
000220 63 17 59 3c 13 d2 dd bc dd ac e6 bc 8b 31 12 3e
       0.013250205 -0.02707771 -0.0281586 0.14276712
000230 a8 06 57 bd be e5 2c 3d f9 a9 91 bb ee cd 07 bc
       -0.052496582 0.042211287 -0.004445311 -0.008288844
000240 ae 2f 17 ba 67 1e b3 3c c8 38 91 3c d6 37 ec 3c
       -0.00057672977 0.021865083 0.01772727 0.028835218
000250 11 14 cd bd d7 d3 62 3c 87 0f 31 3d 8e d0 a9 3c
       -0.10013593 0.013844452 0.0432277 0.02072933
000260 69 30 2d bd c1 fd b6 bd a6 ac a1 bd 6f d0 2f bd
       -0.042282496 -0.089351185 -0.07894258 -0.042923387
000270 4e fe 4b bd 4c 7a 76 3e 99 0d 90 ba 9d 8a d5 3c
       -0.04980307 0.2407009 -0.001099038 0.026067073
000280 54 6d 2a 3d 9e 5c 5a bc d0 07 74 bd 0b a5 b4 3c
       0.04160817 -0.013327746 -0.059577763 0.022051355
000290 aa 83 84 3d 85 85 a9 bd e8 6d 8a bd b6 7c 4b bc
       0.064704254 -0.0827742 -0.06759244 -0.01241987
0002a0 43 07 a2 3c a0 3b f4 ba 3f 2f e6 3c 97 d1 53 bc
       0.019778853 -0.0018633492 0.0280987 -0.012928388
0002b0 3b ae 53 ba c1 87 dc bc 58 d3 0e bd 31 10 d1 bd
       -0.00080749736 -0.026920201 -0.03486952 -0.102081664
0002c0 80 5f b2 bc 43 03 0c bc f4 ac b8 3d b7 14 c8 3d
       -0.021774054 -0.0085456995 0.09017363 0.09769576
0002d0 a0 94 c3 3c 03 61 15 3c 65 16 26 3d 43 15 b5 bd
       0.02387458 0.009117368 0.0405487 -0.08841946
0002e0 70 9d 63 bd 53 14 83 bc 59 8a 47 bc 00 9c 6c 3d
       -0.055570066 -0.016000902 -0.012178981 0.05776596
0002f0 b2 f8 6b 3c e8 44 cb 3d a4 bf 42 3d 7e fb 0c 3e
       0.014402555 0.09925252 0.047546044 0.13767812
000300 af 45 11 3d c6 b0 8e 3d ff 97 45 bc 35 63 4f 3c
       0.035466846 0.069673106 -0.0120601645 0.01265793
000310 33 f5 c3 bd 4f aa f5 3c 9b 1a 24 3d 30 38 d7 bc
       -0.095682524 0.029988436 0.040064435 -0.02627191
000320 85 6e 6f 3d fd b6 df 3c 85 f5 ad 3d 1f f0 90 bd
       0.05845501 0.027308935 0.08494095 -0.070770495
000330 56 87 5b 3d 4a f8 68 3c 6a ea f4 bc f6 c2 a6 bd
       0.053595863 0.014219353 -0.029896934 -0.081426546
000340 c6 11 b6 bd 93 8a 48 bd 51 51 8f bc 53 43 81 3b
       -0.08890109 -0.04896028 -0.01749483 0.0039447933
000350 86 63 8e 3c 73 06 f7 ba 2d 71 e7 3d 64 15 9f bd
       0.01738144 -0.0018846527 0.113008834 -0.07767752
000360 01 ee f6 3d ff 6d 8c 3d 15 f0 ed 3d 34 60 11 bd
       0.120571144 0.068569176 0.11618058 -0.035492137
000370 42 3c 20 be 4c 04 b0 3c 12 73 54 bc 82 4a e9 3d
       -0.15647987 0.021486424 -0.012966888 0.11391164
000380 82 db 06 3d 62 06 c5 bc 21 3a b5 3d 13 2e 91 bd
       0.032924183 -0.024050895 0.08848978 -0.07088866
000390 49 1b 3d bd 9e b9 ef 3d da eb 46 bc b1 56 0c 3b
       -0.0461686 0.117053255 -0.012141192 0.0021413977
0003a0 ec 99 c7 bc e3 0b 0f be e3 d2 87 bc dd 60 1a bd
       -0.024365388 -0.13969378 -0.01658005 -0.037690032
0003b0 97 6e f8 bc 21 4c 54 bc b5 72 d3 bc 2f 0c cf 3a
       -0.03032617 -0.012957604 -0.025811533 0.0015796478
0003c0 f9 cf 59 bc 51 ab ad 3d 36 ad 42 bd f0 d3 de 3d
       -0.013294213 0.08479942 -0.047528468 0.108802676
0003d0 cd 8c 08 3e 26 9e 74 b8 f6 ca 6f 3c c8 28 09 bd
       0.13334961 -5.832142e-05 0.014635792 -0.033486158
0003e0 f8 7f 5c bc 9e 62 fa bc 41 fa 9e 3b 6c a6 8b 3d
       -0.0134582445 -0.030564602 0.00485161 0.06818852
0003f0 10 5c 9c 3d 31 84 c3 bd e3 ab 95 bd 55 e2 82 3e
       0.07634747 -0.09546698 -0.073081754 0.25563303

residual_blocks.1.3.bias f4 [16]
000000 a1 c2 04 36 04 34 6e b6 cb fa 0e b7 d3 73 41 36
       1.9782822e-06 -3.549504e-06 -8.522252e-06 2.882666e-06
000010 e5 29 e2 36 6d 06 7d b6 2f 87 91 b6 6c 61 e6 b5
       6.740202e-06 -3.7703678e-06 -4.337074e-06 -1.7164689e-06
000020 ee cf 18 37 96 77 8d 36 78 4c 5e b6 a5 e2 59 b5
       9.108318e-06 4.216049e-06 -3.3125089e-06 -8.116861e-07
000030 5d 8f 7a 36 6f d7 87 b6 ff 67 16 b5 38 d0 2d 37
       3.7336351e-06 -4.0483933e-06 -5.603069e-07 1.0360083e-05

residual_blocks.1.4.weight f4 [16]
000000 bb 72 ab 3e a1 5c ed 3e 4d 87 95 3e 76 55 af 3e
       0.3348597 0.46359733 0.2920479 0.3424489
000010 c2 11 44 3e fd fd cf 3e 91 20 dd 3e 15 8d 94 3e
       0.19147399 0.40623465 0.4318891 0.29013887
000020 0d cb b0 3e 81 ac 97 3e 0d f3 47 3e 0a 5a bf 3e
       0.34529915 0.29623798 0.1952631 0.37373382
000030 ed 3d aa 3e 5a 69 8a 3e 46 f1 66 3e bd 3d ab 3e
       0.3325037 0.27033502 0.22552976 0.3344554

residual_blocks.1.4.bias f4 [16]
000000 0b 59 f1 b9 f8 dc dd 3d bc 34 3b be 73 b3 98 3b
       -0.00046033444 0.10833162 -0.18281835 0.004660064
000010 31 b3 01 be 85 8c f6 bd ed 54 6d bd dc e4 96 bd
       -0.12666012 -0.12038521 -0.05794232 -0.0736787
000020 dd fe a6 ba 33 68 f0 bd 07 f5 de bb f3 de a6 bd
       -0.001274075 -0.117386244 -0.006804112 -0.08147993
000030 94 41 03 3d 7d 94 8b bd 78 40 10 be 78 74 36 bc
       0.032044962 -0.06815431 -0.14087093 -0.011136167

residual_blocks.1.4.running_mean f4 [16]
000000 5c 7a 37 3d 7a 34 23 3d bd 2b 93 bd 22 5e 11 be
       0.044794425 0.039844967 -0.07186077 -0.14196065
000010 93 64 c2 bd 98 cc b6 3d aa 2e be bd a2 2d ba bd
       -0.09491839 0.08925742 -0.09286244 -0.09090735
000020 93 ce c1 3c 45 81 3c bd fc 5a 1d bd f3 b0 c9 bd
       0.023658073 -0.04602172 -0.038416848 -0.098482035
000030 a0 7a 98 3d 43 a9 99 bd dd 28 f8 bc 41 5d d1 3d
       0.07445264 -0.07502987 -0.030292923 0.10222865

residual_blocks.1.4.running_var f4 [16]
000000 1f a8 76 3c e2 aa 18 3d d2 dc 6e 3c 6a b3 71 3c
       0.015054732 0.03727234 0.014579015 0.014752248
000010 bc f7 c4 3b 58 4c d3 3c 99 ae a3 3c cd 54 8a 3c
       0.0060109776 0.02579324 0.019980716 0.01688614
000020 11 38 c0 3c e4 1a 78 3c 8f 27 57 3c 7e 16 87 3c
       0.023464235 0.01514313 0.01313199 0.016490217
000030 9f 9d e7 3c 0e 79 1c 3c 04 18 17 3c 30 2c 20 3c
       0.028273402 0.009550346 0.009222034 0.00977616
