models/cho_pha_go_5x5.pt (torch, 861880 bytes, 134 tensors)

conv1.weight f4 [32, 17, 3, 3]
0	0xbd6a1340	-0.057147264
1	0x3ca2d48a	0.019876737
2	0xbd97acf4	-0.07406035
3	0x3c7d930b	0.015476952
4	0xbd871494	-0.06595722
5	0xbdbba19b	-0.09161683
6	0x3cda2333	0.026628112
7	0xbcdf770a	-0.027278442
8	0x3d52c97f	0.051461693
9	0xbd65b804	-0.056083694
10	0x3d1c5ce6	0.038174532
11	0xbd0a8312	-0.033816405
12	0x3dbe5cd0	0.09295046
13	0xbd98fc23	-0.07469966
14	0xbd9e8e8c	-0.077420324
15	0x3dae8287	0.0852099
16	0x3cb73aac	0.022366844
17	0xbd60c8cb	-0.05487899
18	0x3c172af2	0.009226548
19	0xbc831d3d	-0.016005153
20	0xbb65c00b	-0.0035057093
21	0xbd7fa8f7	-0.062416997
22	0xbc90dae3	-0.017682498
23	0xbc6407bd	-0.013917861
24	0x3cf700d8	0.03015177
25	0xbc1e8077	-0.009674183
26	0x3d9c18b9	0.07621903
27	0x3d94ec25	0.072716035
28	0x3d51d05f	0.05122411
29	0xbd562367	-0.052279856
30	0x3cc78731	0.024356456
31	0xbd4ad128	-0.049515873
32	0xbdcbc67f	-0.099499695
33	0xbd53af2f	-0.05168074
34	0x3d99cbea	0.07509597
35	0xbc020370	-0.00793539
36	0xbd404f34	-0.046950534
37	0x3c875aec	0.016522847
38	0x3d12f673	0.035879564
39	0xbd9331fc	-0.07187268
40	0x3d2da609	0.04239467
41	0x3c3dcc6a	0.011584381
42	0x3b3c1182	0.002869696
43	0x3d863e0f	0.065548055
44	0xbc41439f	-0.011795907
45	0xbbafe547	-0.005367908
46	0xbd903973	-0.070422076
47	0x3d2113f8	0.039325684
48	0x3b9d6f92	0.00480456
49	0xbd4fb409	-0.050708804
50	0x3ca5efc8	0.020255938
51	0x3c424779	0.011857861
52	0xbd25872a	-0.040412106
53	0xbc8e2204	-0.017350204
54	0xbd4e2d78	-0.05033633
55	0xbc909294	-0.017648019
56	0x3d3d1374	0.04616113
57	0x3d0989a4	0.03357853
58	0x3950c6c2	0.00019910469
59	0xbcce6405	-0.025194177
60	0x3d0d040a	0.03442768
61	0xbc3a9683	-0.011388424
62	0xbcca8da6	-0.024725746
63	0x3cf71bbd	0.030164594
64	0x3db4baf1	0.08824719
65	0x3d891f9c	0.06695482
66	0xbd6120ea	-0.05496303
67	0xbcfac053	-0.030609285
68	0xbd170c92	-0.036877222
69	0x3daaa187	0.0833159
70	0x3da44402	0.08020784
71	0x3cf0c16e	0.02938911
72	0x3d603675	0.054739434
73	0x3d083aa3	0.033259045
74	0x3ca0ef14	0.019645251
75	0x3cedcffc	0.029029839
76	0x3bbcd132	0.0057622427
77	0x3d381ca7	0.0449492
78	0x3d1e610b	0.038666766
79	0x3d5890ec	0.052872583
80	0x3b76a435	0.0037634496
81	0x3d4dcb27	0.05024257
82	0x3b9fee4d	0.0048807026
83	0x3d8886f7	0.066663675
84	0x3d057c98	0.032589525
85	0x3c930f5a	0.017951656
86	0x3b5f37b2	0.0034060297
87	0xbd1b947a	-0.037983395
88	0x3ce8a29f	0.028397856
89	0xbc683035	-0.01417165
90	0xbd371063	-0.044693362
91	0x3d3b75e8	0.04576674
92	0xbd763ec1	-0.06011844
93	0xbdbf6121	-0.09344698
94	0x3d57dad3	0.05269892
95	0x3cc60254	0.024171032
96	0xbd18d87b	-0.037315827
97	0xbcc65dd1	-0.024214657
98	0xbcc15b5a	-0.02360313
99	0x3c030165	0.007995938
100	0xbc5c90b3	-0.013462233
101	0x3d78cd9a	0.060742952
102	0xbd6f8efc	-0.05848597
103	0xbd93ed91	-0.072230466
104	0xbd966de8	-0.07345182
105	0x3d472c4c	0.04862623
106	0x3bf8a226	0.007587689
107	0xbd9c46db	-0.07630702
108	0x3d0d0f29	0.034438286
109	0x3d6eacc0	0.058270216
110	0xbb629f07	-0.003457965
111	0xbd6b3d05	-0.05743124
112	0x3d9e86ff	0.07740592
113	0xbd89e7ef	-0.06733691
114	0x3c6f62f3	0.014610994
115	0x3c8f9498	0.01752691
116	0xbd1f3942	-0.038872965
117	0x3d7ddef4	0.061980203
118	0xbce46e9a	-0.02788477
119	0xbd5c8e7a	-0.053846814
120	0x3d6eafb5	0.058273036
121	0x3bc87aeb	0.0061181686
122	0xbd679e2f	-0.05654734
123	0x3db49e0c	0.088192075
124	0x3cae4483	0.021272903
125	0x3d22398a	0.039605655
126	0xbd827b53	-0.063711785
127	0xbd135561	-0.035970096
128	0x3c58aa45	0.013224189
129	0xbd88c866	-0.06678848
130	0xbd15ca70	-0.036570013
131	0x3d02584f	0.0318225
132	0x3ce67fd9	0.028137134
133	0xbd0b1048	-0.033951074
134	0xbd19b7e8	-0.037528902
135	0x3d2e29d4	0.04252036
136	0x3da1a0be	0.07891987
137	0xbcaddd96	-0.021223824
138	0x3d8d241e	0.068916544
139	0xbc8b700f	-0.017021207
140	0xbd525fa0	-0.051360726
141	0xbd506b0a	-0.05088333
142	0x3c34c9da	0.011034453
143	0xbc0d8f5d	-0.0086401375
144	0xbcb0f0af	-0.021599142
145	0x3c5686dd	0.013093677
146	0x3d051966	0.032494925
147	0x3d4d9b41	0.05019689
148	0xbd7d0bec	-0.061778948
149	0xbc816916	-0.01579718
150	0xbd760b8c	-0.060069606
151	0xbca9b0d0	-0.020714194
152	0xbd827f6c	-0.0637196
153	0xbd9465fa	-0.07246013
154	0x3d183393	0.03715856
155	0x3cd9a59a	0.026568223
156	0xbca08918	-0.019596621
157	0x3cc6583e	0.024211999
158	0x3d08f65e	0.03343808
159	0xbc918ab6	-0.017766338
160	0x3d97f2da	0.07419367
161	0x3cdf3f56	0.02725188
162	0xbb10ef0d	-0.0022115142
163	0xbd4f51ae	-0.050615005
164	0xbce8d7e5	-0.028423259
165	0xbd877f87	-0.06616121
166	0x3ad750e8	0.001642731
167	0x3dc2a3d1	0.09503902
168	0xbdad1e2b	-0.0845302
169	0xbd87d313	-0.06632056
170	0xbc9154f7	-0.01774071
171	0x3cdc8398	0.026918218
172	0xbc4718cd	-0.012151909
173	0x3d941641	0.07230807
174	0xbd916725	-0.070997514
175	0xbd4b1e77	-0.0495896
176	0x3c8985a3	0.016787356
177	0x3bff418d	0.0077897967
178	0xbd87bd66	-0.06627922
179	0xbccadecc	-0.024764441
180	0x3d815edb	0.0631692
181	0x3d2505a0	0.040288568
182	0xbcd58794	-0.026065625
183	0x3bbea2de	0.005817755
184	0x3d06ddd0	0.03292638
185	0x3d31406b	0.043274324
186	0xbd8bf268	-0.06833345
187	0xbcb0fb17	-0.021604104
188	0xbcc74ddb	-0.024329117
189	0xbd20784f	-0.039177235
190	0x3d0dd2f5	0.034625012
191	0x3d8c385a	0.06846686
192	0x3d805e2c	0.06267962
193	0xbd06385d	-0.032768596
194	0x3da25b1f	0.07927536
195	0x3dad691c	0.08467314
196	0x3da850e7	0.08218556
197	0x3d5e06d3	0.054205727
198	0xbd1a3647	-0.03764942
199	0xbd633d1d	-0.055478204
200	0xbd292ed4	-0.041304424
201	0xbd628906	-0.055306457
202	0x3ae9a7d0	0.0017826501
203	0xbca08126	-0.019592833
204	0xbd0ef25b	-0.034899097
205	0xbd32412d	-0.043519188
206	0x3d2ce568	0.042210966
207	0x3d5fb0b4	0.054611877
208	0x3cbd3991	0.023098739
209	0x3d0aa1ff	0.033845898
210	0x3d64c5c4	0.055852666
211	0xbca8ded4	-0.020614065
212	0x3d5a59de	0.05330836
213	0xbd5188fc	-0.05115603
214	0xbd880ef9	-0.06643481
215	0x3d30f3bb	0.04320119
216	0x3d8b451f	0.06800293
217	0x3d406297	0.046969023
218	0x3c8e35ca	0.017359633
219	0x3d0bd2ce	0.034136586
220	0x3d82745f	0.06369852
221	0xbd84c7f5	-0.06483451
222	0x3d711d91	0.058866087
223	0xbd83a97e	-0.064288124
224	0x3d8c8a3a	0.06862302
225	0x3d325bdd	0.04354464
226	0xbd3b6433	-0.045749854
227	0x3d309c65	0.0431179
228	0x3d60538f	0.054767188
229	0xbd8532e7	-0.065038495
230	0xbd6a7ac2	-0.057245977
231	0x3d4c8ab5	0.04993697
232	0xbd48b6f9	-0.04900262
233	0xbab8dae7	-0.0014103324
234	0xbd1b9fbc	-0.03799413
235	0xbd886cd7	-0.066613846
236	0x3b0e60c9	0.002172517
237	0x3c21320f	0.009838595
238	0x3d6662b5	0.056246478
239	0x3c3c98f6	0.011511078
240	0xba4b6ac6	-0.0007759746
241	0xbd1501f8	-0.03637883
242	0xbda33633	-0.07969322
243	0x3da7b816	0.081894085
244	0xbd35db3d	-0.044398535
245	0xba4aad9d	-0.0007731559
246	0x3d8ea73b	0.069654904
247	0x3d29181b	0.041282754
248	0x3d784f1b	0.060622316
249	0x3d27e71d	0.04099189
250	0x3d95df6e	0.073180065
251	0xbc96cc4f	-0.018407969
252	0xbc70c64e	-0.014695717
253	0xbcd1a450	-0.025591046
254	0xbbcfffb6	-0.006347622
255	0xbcfc321d	-0.030785615

conv1.bias f4 [32]
0	0xbd6092a4	-0.054827347
1	0xbda4b21f	-0.080417864
2	0xbd744563	-0.059636485
3	0x3d14ae5e	0.036299102
4	0x3cbe03dd	0.023195202
5	0x3cfb3805	0.03066636
6	0xbc6e6e08	-0.014552601
7	0xbc4b886d	-0.012422663
8	0xbd9a1df6	-0.07525246
9	0x3d859d06	0.065240905
10	0x3c6d53fe	0.014485357
11	0x3b424ff2	0.0029649702
12	0xbd2f296c	-0.042764112
13	0x3d398b40	0.045298815
14	0x3de53cac	0.11193213
15	0x3e02a05e	0.12756488
16	0xbd7e3028	-0.062057644
17	0xbc21d2de	-0.009876935
18	0x3ca244df	0.01980823
19	0xbbd2ac91	-0.006429263
20	0x3d9f0bd5	0.07765929
21	0x3d1444bc	0.036198363
22	0xb9927469	-0.00027934022
23	0x3d0a16de	0.033713214
24	0xbd6beb57	-0.057597484
25	0xbb05a2bc	-0.0020391187
26	0xbd6bd0b3	-0.057572078
27	0x3ad912eb	0.0016561424
28	0xbd8357c8	-0.06413227
29	0x3d99adbb	0.075038396
30	0xbc0f4312	-0.008744018
31	0xbc5fbe5d	-0.013656226

residual_blocks.0.0.weight f4 [32, 32, 3, 3]
0	0x3ceafd84	0.028685339
1	0xbd3c8eb0	-0.046034515
2	0xbc5c0ce0	-0.013430804
3	0xbcca0c72	-0.024664138
4	0x3c9f0e10	0.019415885
5	0xbc1fca4f	-0.009752824
6	0x3d1d629d	0.038424123
7	0x3d0f2ba6	0.034953736
8	0xbc133dd4	-0.008986909
9	0x393b5eb2	0.00017868986
10	0x3cb52806	0.022113811
11	0x3b9ea059	0.0048408923
12	0xbd2ce6f2	-0.042212434
13	0xbc50a05e	-0.012733547
14	0xbd6d019c	-0.057862863
15	0x3cb00f72	0.02149174
16	0x3c80cf5f	0.015723882
17	0x3d645b78	0.055751294
18	0xbae37ae9	-0.0017355356
19	0x3b99a76d	0.004689148
20	0x3cbd1b4c	0.023084305
21	0x3d0a5790	0.033774912
22	0x3d663129	0.056199227
23	0x3d83533e	0.064123616
24	0xbc64dcdf	-0.013968675
25	0x3d007c42	0.0313685
26	0xbc978d1d	-0.018499905
27	0xbbf1dce6	-0.0073810695
28	0xbcb0fd58	-0.021605179
29	0x3da1f830	0.07908666
30	0x3cdc54b5	0.02689586
31	0x3ce17871	0.027523251
32	0xbce9da20	-0.028546393
33	0x3d95679a	0.07295151
34	0xbdace032	-0.08441199
35	0xbd810345	-0.06299452
36	0xbd744e9b	-0.059645277
37	0x3c7fb34a	0.015606711
38	0xbc8323ea	-0.016008336
39	0x3d32c66f	0.043646272
40	0x3d7009d0	0.058603108
41	0xbd4ce14d	-0.05001955
42	0x3d3c9931	0.046044532
43	0xbcd68f00	-0.026191235
44	0x3c83a702	0.016070846
45	0xbce182a2	-0.02752811
46	0xbcd66ec7	-0.02617587
47	0x3caba689	0.020953434
48	0x3c1c2598	0.009530447
49	0x3d0d2d5b	0.034467082
50	0xbcf8048a	-0.030275602
51	0x3c64b41b	0.013958956
52	0x3da9865f	0.082775824
53	0x3c618ec5	0.013766949
54	0xbbc69fe1	-0.0060615395
55	0xbce9e2d2	-0.02855054
56	0x3d280882	0.04102374
57	0xbcf5ca58	-0.030003712
58	0xbc67ac8d	-0.01414026
59	0x3d246d22	0.04014314
60	0x3d794554	0.060857132
61	0xbbefb3d1	-0.007315137
62	0x3c9e0c2b	0.019292912
63	0x3d8162e5	0.06317691
64	0xbda32302	-0.079656616
65	0x3cd96730	0.026538461
66	0x3cb9705f	0.02263659
67	0x3d12adc7	0.03581026
68	0xbb1f7eb4	-0.0024336996
69	0x3ca63c0a	0.0202923
70	0xbd0eef54	-0.03489621
71	0xbcd09c79	-0.025465237
72	0xbc85886b	-0.0163004
73	0x3d826589	0.063670225
74	0xbd3ce1a6	-0.046113633
75	0x3cdd91cb	0.027047059
76	0x3b9f8059	0.004867595
77	0xbcebf112	-0.028801475
78	0xbd8bd034	-0.06826821
79	0xbd42992c	-0.047509357
80	0x3d84cde4	0.06484583
81	0x3c9766f5	0.01848171
82	0x3c68017e	0.014160512
83	0x3d3082ae	0.043093376
84	0xbd0b09b4	-0.0339448
85	0x3ce7c36e	0.02829143
86	0x3d0b38d4	0.033989742
87	0x3d353bea	0.04424659
88	0xbc3475d0	-0.011014417
89	0x3d41ca20	0.047311902
90	0xbd47f795	-0.048820097
91	0xbcddb74e	-0.027064946
92	0xbd2f4abc	-0.04279588
93	0xbc9898aa	-0.018627483
94	0xbd79c0fa	-0.060975052
95	0xbc028902	-0.0079672355
96	0x3c59a198	0.013283156
97	0xbd657829	-0.056022797
98	0x3ccff378	0.02538465
99	0x3c803ec4	0.015654929
100	0xbd6c0b16	-0.05762776
101	0xbd398a39	-0.045297835
102	0x3d177edf	0.036986228
103	0xbd4b66fa	-0.049658753
104	0xbcf9a257	-0.030472917
105	0xbd0b30ee	-0.03398221
106	0x3cbfc4b5	0.023409227
107	0x3cb89629	0.02253254
108	0x3cebef27	0.02880056
109	0x3c8fef38	0.017570123
110	0x3c8ead89	0.017416732
111	0xbcda7147	-0.026665343
112	0xbbdf392a	-0.0068122344
113	0x3d504a4c	0.050852105
114	0x3d2c51ee	0.04207032
115	0xbd501f18	-0.050810903
116	0x3d39d5bc	0.04536985
117	0x3c1395a2	0.009007843
118	0x3cdc013a	0.026856054
119	0xbd88a1df	-0.066714995
120	0xbcbffdf5	-0.023436526
121	0xbcc20625	-0.02368457
122	0xbce489e5	-0.027897784
123	0xbb1a810a	-0.0023575448
124	0x3baba4ec	0.005238166
125	0xbd1afb49	-0.0378373
126	0x3b760a85	0.0037542891
127	0x3bc6a1e7	0.0060617807
128	0xbc6d2906	-0.014475113
129	0xbcee33f2	-0.029077504
130	0xbd95423c	-0.07288024
131	0xbd1b3a6e	-0.03789752
132	0x3c934fe8	0.017982438
133	0x3c84f069	0.016227918
134	0xbc101dfe	-0.008796213
135	0xbc849a09	-0.016186731
136	0x3d046f3e	0.03233265
137	0x3aea0530	0.0017854329
138	0x3cd7ce72	0.026343558
139	0x3a258b77	0.00063150324
140	0xbd9eba71	-0.077504046
141	0x394e7ea8	0.00019692874
142	0x3d36de6a	0.044645704
143	0xbd0bc9d1	-0.034128014
144	0xbd8b2925	-0.06794957
145	0x3d071e0a	0.03298763
146	0x39b0d008	0.0003372433
147	0xbc174cf9	-0.00923466
148	0x3d1938e4	0.03740777
149	0xbc6d9754	-0.0145014115
150	0x3b36b0ff	0.0027876494
151	0x3baff148	0.005369339
152	0x3d8338dc	0.064073294
153	0x3bd8a6f7	0.0066117006
154	0x3d2a8869	0.041633997
155	0xbcffffe9	-0.031249957
156	0xbd0ec390	-0.03485447
157	0x3ceea13a	0.029129613
158	0xbd3a85aa	-0.04553763
159	0x3cffd1c2	0.03122795
160	0x3ccdfda0	0.025145352
161	0x3c22db34	0.009939957
162	0x3a5ebbd8	0.0008496619
163	0x3d1fc4bd	0.039005984
164	0x3c2f5ca9	0.010703244
165	0x3c9bf4fc	0.019037716
166	0xbd3c5686	-0.045980953
167	0x3cbac7cc	0.022800349
168	0x3ca9f6b3	0.020747518
169	0x3c47321e	0.012157945
170	0x3cdb61f0	0.026780099
171	0x3cd46a7f	0.025929688
172	0x3ccb2e1f	0.024802266
173	0x3c9531fc	0.018212311
174	0x3c77b9d3	0.015119988
175	0xbce2697a	-0.027638186
176	0x3cf563f1	0.029954882
177	0x3d319355	0.043353397
178	0xbd2d831d	-0.042361367
179	0x3d1629bb	0.03666089
180	0xbd7050b9	-0.058670733
181	0x3c26f348	0.010189839
182	0x3beb407c	0.007179318
183	0xbc834fd1	-0.01602927
184	0xbc6f3af7	-0.014601461
185	0x3c8e8d24	0.017401285
186	0x3d75344f	0.05986434
187	0xbd804a3c	-0.06264159
188	0x3c83c6ae	0.016085949
189	0xbd937d72	-0.07201661
190	0xbbc65c55	-0.0060534873
191	0x3d2939c1	0.041314844
192	0xbd57a520	-0.05264771
193	0xbd93edee	-0.07223116
194	0x3d29693f	0.041360136
195	0xbc815083	-0.015785461
196	0xbc7c43d7	-0.015397034
197	0xbce06dd2	-0.027396116
198	0xbce4cd25	-0.027929852
199	0xbcfb13e3	-0.030649131
200	0x3d01a022	0.031646855
201	0x3d167eaf	0.03674191
202	0x3cd1e951	0.02562395
203	0x3b25662c	0.00252379
204	0xbd492f07	-0.049117114
205	0xbbd900a2	-0.00662239
206	0xbd61e62f	-0.05515116
207	0xbd5883d6	-0.052860104
208	0xbd131343	-0.03590704
209	0x3d09f416	0.033680044
210	0xbd7bb6cc	-0.061453626
211	0xbc62f7d4	-0.013853032
212	0x3bfc5f54	0.0077017937
213	0x3cb1b6bd	0.021693582
214	0x3d703344	0.05864264
215	0x3c7ee6ea	0.015557984
216	0x3c1a1c73	0.009406197
217	0x3c50fcf9	0.012755626
218	0xbd3b4416	-0.04571923
219	0x3d3aaa51	0.045572583
220	0x3d2ca655	0.042150814
221	0x3cd8128d	0.026376033
222	0x3d57d46a	0.05269281
223	0x3d38f2d3	0.04515345
224	0xbd0ee52c	-0.034886524
225	0xbd47d1f0	-0.048784196
226	0x3c731971	0.014837609
227	0xbd099603	-0.033590328
228	0x3d03cd71	0.032178346
229	0x3d76281d	0.06009685
230	0x3b6e7beb	0.0036389779
231	0xbd5641f6	-0.052309
232	0x3ceab249	0.028649466
233	0x3ca972af	0.020684568
234	0xbd1cbba9	-0.038264904
235	0x3bc981cf	0.0061495076
236	0x3d3272d8	0.043566555
237	0x3afa6bc7	0.0019105606
238	0xbc1fd55c	-0.009755459
239	0x3c17be51	0.009261684
240	0xbbebc59d	-0.007195188
241	0xbd1d9081	-0.038467888
242	0x3aba8a56	0.0014231901
243	0xbcc470d7	-0.023979587
244	0xbc2e35f9	-0.010632985
245	0xbce1fa3f	-0.027585147
246	0x3d5d4212	0.054018088
247	0xbd6f6691	-0.058447424
248	0x3cbe719f	0.023247538
249	0x3d134c40	0.03596139
250	0xbcdc50f2	-0.026894066
251	0x3c8984fb	0.016787043
252	0xbcee987e	-0.029125448
253	0xbd325e23	-0.043546807
254	0xba67e12c	-0.0008845504
255	0xbacc36e1	-0.001558032

residual_blocks.0.0.bias f4 [32]
0	0x38e1fb9c	0.00010775702
1	0xb8b4e9a5	-8.6265885e-05
2	0xb854021c	-5.0546703e-05
3	0xb6ce6374	-6.1508563e-06
4	0x387f6976	6.0894956e-05
5	0xb893cfdc	-7.048223e-05
6	0xb80a304f	-3.2946755e-05
7	0x38af6c3b	8.36481e-05
8	0x3951f81d	0.00020024223
9	0xb8e52d33	-0.0001092799
10	0x38822733	6.2061845e-05
11	0x390ac448	0.00013233826
12	0x38d30bac	0.00010063438
13	0xb8bc6bd4	-8.984623e-05
14	0x38d97bf1	0.00010370452
15	0x398dde22	0.00027059118
16	0xb707ba15	-8.089953e-06
17	0xb8ddb7ad	-0.000105723135
18	0x383b1087	4.4599667e-05
19	0xb996c9d5	-0.00028760606
20	0x38984130	7.260067e-05
21	0xb91cec19	-0.00014965273
22	0xb986399a	-0.00025601388
23	0x386e566c	5.682411e-05
24	0xb92793af	-0.00015981378
25	0x3901bb4b	0.00012372171
26	0xb81cfe38	-3.7430058e-05
27	0xb988b688	-0.00026075938
28	0x38bb77b6	8.939153e-05
29	0xb891c95e	-6.951646e-05
30	0x391d95f2	0.00015028546
31	0xb59dad21	-1.1747799e-06

residual_blocks.0.1.weight f4 [32]
0	0x3f812af5	1.0091234
1	0x3f80c7b4	1.0060945
2	0x3f80c0bd	1.0058819
3	0x3f7f2f0a	0.9968115
4	0x3f8049a2	1.0022471
5	0x3f7b6087	0.98194164
6	0x3f79da57	0.97598785
7	0x3f7d684a	0.9898726
8	0x3f776962	0.96645176
9	0x3f80f7c5	1.0075613
10	0x3f7cd55f	0.9876308
11	0x3f73afe2	0.9519025
12	0x3f81c72c	1.0138907
13	0x3f828316	1.0196254
14	0x3f7aad4a	0.9792067
15	0x3f7d0251	0.9883166
16	0x3f7dd51e	0.99153316
17	0x3f7dfbbb	0.99212235
18	0x3f7ee21d	0.9956377
19	0x3f809dd2	1.0048163
20	0x3f79f7d3	0.97643775
21	0x3f83e75e	1.0304983
22	0x3f85e6a7	1.0461015
23	0x3f7fb5a2	0.99886525
24	0x3f7823ef	0.9692983
25	0x3f7ced06	0.9879917
26	0x3f78b856	0.97156274
27	0x3f7eee23	0.9958212
28	0x3f8052c8	1.0025263
29	0x3f7d4037	0.9892611
30	0x3f79eba7	0.976252
31	0x3f7f0845	0.99621993

residual_blocks.0.1.bias f4 [32]
0	0x3c017c66	0.007903194
1	0x3c98b4b0	0.018640846
2	0x3d0ed50a	0.03487114
3	0x3c08f801	0.00835991
4	0x3cf48521	0.029848637
5	0x3b4c0e77	0.0031136551
6	0xbb91dd1f	-0.0044514085
7	0xba9eab31	-0.0012105462
8	0xbcc30dd2	-0.023810301
9	0x3c23aace	0.0099894535
10	0xbb52bbb5	-0.003215534
11	0xbccbf3f8	-0.024896607
12	0x3c90eb83	0.017690426
13	0x3d41711f	0.04722702
14	0x3c3a7de2	0.011382552
15	0x3c870be2	0.016485158
16	0xbbf2d40a	-0.007410531
17	0x3bb6094d	0.005555308
18	0x3c1b71b6	0.00948756
19	0x3d3309e9	0.043710623
20	0xbaacf3d2	-0.0013195223
21	0x3d64848e	0.055790477
22	0x3d31bf8d	0.043395568
23	0x3c67e789	0.014154323
24	0x3c4a70d7	0.012356005
25	0xbc276547	-0.0102170175
26	0xbc7e35b5	-0.015515734
27	0x3c31148f	0.010808124
28	0x3cafdeb0	0.02146849
29	0xbc5e2194	-0.01355781
30	0x3b608e1c	0.0034264391
31	0x3c5942ea	0.013260582

residual_blocks.0.1.running_mean f4 [32]
0	0xbc1d61c9	-0.009605833
1	0x3da7b562	0.08188893
2	0xbd52df5e	-0.05148255
3	0xbd3554fa	-0.044270493
4	0xbd8b00cf	-0.067872636
5	0x3d14d703	0.036337864
6	0xbd2b9d06	-0.041897796
7	0xbd09ca57	-0.033640232
8	0xbd666f25	-0.05625834
9	0x3b7c0a2f	0.0038458218
10	0xbd39b6ca	-0.045340337
11	0x3cdb4bc9	0.026769536
12	0xbda911da	-0.08255358
13	0xbd3004e9	-0.042973433
14	0xbd3166d1	-0.043310944
15	0x3c6c21b2	0.01441233
16	0xbc96148c	-0.018320344
17	0xbda6a78b	-0.08137425
18	0xbdb30d2a	-0.08742745
19	0x3ab59342	0.001385309
20	0xbd211650	-0.03932792
21	0xbdad39e6	-0.08458309
22	0xbd89477f	-0.0670309
23	0xbd671665	-0.05641784
24	0xbba1e2cf	-0.004940368
25	0x3e019604	0.12654883
26	0x3c526f80	0.0128439665
27	0xbd8c03f7	-0.06836694
28	0xbd0543e6	-0.032535456
29	0xbdeb4f21	-0.11489702
30	0xbdff2207	-0.12457662
31	0x3c8957fd	0.016765589

residual_blocks.0.1.running_var f4 [32]
0	0x3c83c7ef	0.016086547
1	0x3c4b2112	0.012398021
2	0x3ca59fa4	0.020217724
3	0x3cc349ca	0.023838896
4	0x3c8281fa	0.015931118
5	0x3cb986c5	0.022647271
6	0x3c6af394	0.0143403
7	0x3c45c21c	0.012070205
8	0x3c9bde63	0.01902694
9	0x3c526c61	0.012843222
10	0x3c1aa86b	0.009439568
11	0x3c60137e	0.013676522
12	0x3c44edf0	0.012019619
13	0x3c8f0ad7	0.017461224
14	0x3c830daa	0.015997726
15	0x3c80406d	0.01565572
16	0x3c598628	0.013276614
17	0x3c56e72e	0.013116641
18	0x3c3c9e36	0.01151233
19	0x3c6f246a	0.014596084
20	0x3c259bb4	0.010107923
21	0x3c874523	0.01651246
22	0x3c943de1	0.018095912
23	0x3c9e2049	0.019302504
24	0x3cb3b6e6	0.021937799
25	0x3ca0a646	0.019610535
26	0x3c7e7427	0.015530623
27	0x3c613159	0.013744676
28	0x3ccec3ad	0.02523979
29	0x3d01525a	0.031572677
30	0x3cc03dc1	0.023466947
31	0x3ca2b8ba	0.019863475

residual_blocks.0.3.weight f4 [32, 32, 3, 3]
0	0xbd2be9f5	-0.041971166
1	0xbd6f7ef4	-0.05847068
2	0xbd2fbe1f	-0.042905923
3	0xbbb393c5	-0.005480262
4	0xbd25412b	-0.040345352
5	0x3c957800	0.018245697
6	0xbc983e46	-0.018584382
7	0xbd84ab64	-0.06478003
8	0x3d9b8949	0.075945444
9	0x3d0da0cf	0.034577187
10	0x3c87fd9a	0.016600419
11	0xbcf71ece	-0.030166056
12	0x3cee776a	0.029109675
13	0xbd53de75	-0.051725823
14	0x3cab03f9	0.020875918
15	0xb9d72ab2	-0.00041039806
16	0x3d78077b	0.06055401
17	0x3d3404ab	0.043949764
18	0xbd144e20	-0.03620732
19	0x3c59df85	0.01329792
20	0xbcd7e1db	-0.026352813
21	0xbd75a851	-0.059974972
22	0x3a2f0c73	0.00066775753
23	0xbd70b133	-0.05876274
24	0xbd6c53a9	-0.057696972
25	0x3d5604fa	0.05225084
26	0x3cef6095	0.029220859
27	0x3ce34eb8	0.027747497
28	0x3d7f355b	0.062306743
29	0xbc83a4e0	-0.01606983
30	0xbd3e40da	-0.046448566
31	0x3c8235d3	0.015894806
32	0x3c8158dc	0.015789442
33	0xbd6130b0	-0.054978073
34	0xbb0f01ed	-0.0021821216
35	0xbc33948d	-0.01096071
36	0xbbbf197a	-0.0058318945
37	0x3c75450b	0.014970074
38	0x3bba1e7e	0.0056799045
39	0x3d28b799	0.041190717
40	0xbd2ed2c8	-0.042681485
41	0x3b29ff27	0.0025939436
42	0xbd179dec	-0.03701584
43	0xbc245edc	-0.010032382
44	0xbbacf571	-0.0052782823
45	0x3d6a31b5	0.05717631
46	0x3cb02bb6	0.021505218
47	0xbd6ff7c0	-0.058585882
48	0x3c92d582	0.017924074
49	0x3c9a38be	0.018825885
50	0xbc85b7d5	-0.01632301
51	0x3d84e900	0.06489754
52	0x3c483474	0.012219537
53	0xbc8d150a	-0.017221946
54	0x3ce3a49c	0.027788453
55	0x3d379fe6	0.044830225
56	0xbd51d453	-0.05122788
57	0xbca0f6cf	-0.019648938
58	0x3cbd0b66	0.023076724
59	0xbb2d19d0	-0.002641309
60	0x3c95f3f1	0.018304797
61	0xbc2d7274	-0.01058637
62	0xbd849a5f	-0.064747564
63	0xbb512208	-0.0031911153
64	0x3d0cff39	0.034423087
65	0xbc462850	-0.012094572
66	0xbd010f5d	-0.031508792
67	0x3c16bebf	0.009200751
68	0xbca35bf0	-0.0199413
69	0x3c902efa	0.017600525
70	0x3c2d4bdb	0.010577167
71	0xbd2ef396	-0.04271277
72	0x3d085d3b	0.033292037
73	0xbcf7ded8	-0.030257627
74	0x3c4cbd89	0.012496361
75	0x3c983cbe	0.018583652
76	0xbca04d32	-0.01956806
77	0xbcf8902d	-0.030342186
78	0x3cc25a4d	0.0237247
79	0x3b02202a	0.0019855597
80	0xbd29cc3e	-0.041454546
81	0x3d4c640a	0.049900092
82	0xbcc3990f	-0.023876695
83	0xbd4f51e5	-0.05061521
84	0xbd12695c	-0.03574501
85	0xbae18d6c	-0.0017208285
86	0x3c215e1a	0.009849096
87	0xbd2ef756	-0.042716347
88	0xbd7d7ab6	-0.061884604
89	0x3ce4e6d2	0.027942095
90	0x3d8133f8	0.063087404
91	0x3c18b8c1	0.0093213925
92	0xbcbb1814	-0.02283863
93	0x3c483092	0.012218611
94	0xbb868e4f	-0.00410632
95	0x3d17f3e1	0.037097815
96	0xbd1e0ee5	-0.038588423
97	0xbd829936	-0.06376879
98	0xbd59d233	-0.053178977
99	0x3c8eeffa	0.017448414
100	0x3b89020f	0.0041811536
101	0x3d0e73c4	0.03477837
102	0xbbc4df82	-0.0060080895
103	0x3ce8c17b	0.028412571
104	0x3cb5b693	0.022181785
105	0x3d841dba	0.064509824
106	0xbce7429d	-0.028230006
107	0xbd0107df	-0.031501647
108	0x3da1ef32	0.07906951
109	0xbd0c957f	-0.034322258
110	0x3d05ad05	0.032635707
111	0x3cbd1b29	0.02308424
112	0x3bf99fdd	0.007617934
113	0xbcc604db	-0.024172237
114	0xbd08412e	-0.033265285
115	0x3d33c7aa	0.043891586
116	0x3d127044	0.035751596
117	0x3d443ede	0.047911517
118	0xbcb2aab9	-0.021809923
119	0x3ceb9faa	0.028762657
120	0xbd688614	-0.056768492
121	0xbcc9c910	-0.024632007
122	0xbbb4899a	-0.0055095674
123	0xbb961609	-0.0045802635
124	0xbcfcf423	-0.030878132
125	0x3c5f2823	0.013620409
126	0xbcedb30d	-0.029016042
127	0x3d264997	0.040597524
128	0x334382c0	4.5520892e-08
129	0xbd20dc82	-0.039272793
130	0xbd140e69	-0.036146555
131	0xbc9513a7	-0.018197848
132	0x3d2be582	0.041966923
133	0x3d2e9811	0.04262549
134	0xbcc243ad	-0.023713911
135	0xbca21afa	-0.019788254
136	0xbd22c093	-0.039734434
137	0xbc78220a	-0.015144834
138	0x3d206cd0	0.03916627
139	0xbc003b0b	-0.007826577
140	0xbc290c8f	-0.010317936
141	0xbd363a1d	-0.044489015
142	0xbbcf8820	-0.006333366
143	0xbd6fe5d5	-0.058568794
144	0xbc8e8e48	-0.01740183
145	0xbb8314cd	-0.0040002824
146	0xbbabf70d	-0.0052479566
147	0xbd2b93fe	-0.041889183
148	0x3d9a725e	0.07541345
149	0xbd627cd7	-0.055294838
150	0xbc2d4273	-0.010574925
151	0xbcc4356f	-0.02395126
152	0xbc936e98	-0.017997071
153	0x3d164480	0.03668642
154	0xbd2277c0	-0.039664984
155	0x3be0a1a3	0.006855206
156	0xbd29ec8c	-0.041485354
157	0xbcd2e0fa	-0.025742043
158	0xbd2f875f	-0.04285371
159	0xbd0ba4a6	-0.034092568
160	0x3d946612	0.07246031
161	0xbcf23ebf	-0.029570935
162	0x3cb546fc	0.022128575
163	0x3d2ac493	0.041691374
164	0xbd3cebc2	-0.046123274
165	0xbd84cbab	-0.06484159
166	0xbbac4fae	-0.005258522
167	0x3d862cb3	0.065514944
168	0x3c9e949d	0.019357974
169	0xbd420c28	-0.047374874
170	0xbc364cc3	-0.0111267
171	0xbd329715	-0.043601114
172	0x3d0c4200	0.03424263
173	0xbd772c84	-0.060345188
174	0x3c4bd46d	0.012440783
175	0xbd73fbef	-0.059566434
176	0xbcea600f	-0.028610257
177	0xba8f775c	-0.0010945606
178	0x3c7ea7a6	0.0155429
179	0xbc9b7f1d	-0.01898151
180	0xbc724120	-0.014786035
181	0xbc23a157	-0.009987197
182	0xbca66428	-0.02031143
183	0x3cb9e98b	0.02269437
184	0x3c16d3ea	0.009205798
185	0xbc9e80df	-0.01934856
186	0xbd0159cf	-0.03157979
187	0xbd21087e	-0.03931474
188	0xbd323702	-0.04350949
189	0xbd8a400b	-0.067504965
190	0x3d7d46ba	0.06183503
191	0x3d670719	0.056403253
192	0x3b6da3ba	0.0036260919
193	0xbcaddaca	-0.02122249
194	0x3c82dbda	0.015973974
195	0x3bb5e807	0.0055513415
196	0x3d15ef05	0.0366049
197	0xbd8dcb60	-0.06923556
198	0x39aa51e7	0.0003248595
199	0xbced89e4	-0.028996415
200	0x3c1de939	0.009638124
201	0xbd2ba853	-0.041908573
202	0xbd07a0f4	-0.03311248
203	0x3d7a08f7	0.061043706
204	0x3d3adfae	0.045623474
205	0x3c1300fd	0.008972404
206	0xbd902637	-0.07038539
207	0x3c3abab8	0.011397056
208	0x3b411b5e	0.0029465775
209	0x3cacb7b2	0.021083687
210	0xbc78c006	-0.015182501
211	0xba30297c	-0.0006720049
212	0xbcafb457	-0.021448297
213	0xbcd81c52	-0.026380692
214	0x3c6674dc	0.014065947
215	0xbddb1606	-0.1069756
216	0x3d56f857	0.05248293
217	0xbbd4276c	-0.006474426
218	0x3d863832	0.06553687
219	0x3d3c8d4c	0.04603319
220	0xbd3325ea	-0.04373733
221	0x3ce3878b	0.027774593
222	0x3cf5161c	0.02991777
223	0xbd94fbae	-0.072745666
224	0x3b9d281c	0.004796041
225	0xbda0c29b	-0.07849618
226	0xbc84b7cc	-0.016200922
227	0xbd0abc0c	-0.03387074
228	0xbd1e7278	-0.038683385
229	0xbc9fd054	-0.019508518
230	0x3b946516	0.004528652
231	0xbd422d52	-0.047406502
232	0xbcc5e06d	-0.024154866
233	0x3ce9ff3b	0.028564086
234	0x3cab01b2	0.020874832
235	0xbce4e097	-0.027939124
236	0x3d1e5307	0.0386534
237	0xbc4c4b7f	-0.012469172
238	0x3d2713a8	0.04079023
239	0xbcb461a3	-0.022019213
240	0x3c80478c	0.015659116
241	0xbce64f64	-0.028114028
242	0x3d50227c	0.050814137
243	0xbd4f5046	-0.050613664
244	0x3d6780c8	0.0565193
245	0x3d1a1a07	0.037622478
246	0xbd2a5e39	-0.041593764
247	0xbbb4c796	-0.0055169566
248	0xbd1eae7a	-0.038740613
249	0xbc457886	-0.012052661
250	0xbd6290a5	-0.055313725
251	0xbb84265a	-0.004032892
252	0x3cc93f99	0.024566459
253	0xbd029e31	-0.031889144
254	0x3b6b1381	0.003586978
255	0x3c269017	0.01016619

residual_blocks.0.3.bias f4 [32]
0	0xb82ce9e2	-4.1225816e-05
1	0x389bdbf4	7.4319454e-05
2	0x37348f3e	1.0762187e-05
3	0xb800fd54	-3.075351e-05
4	0x380289eb	3.112286e-05
5	0x38f436e5	0.000116450516
6	0x36bcf5f2	5.6314684e-06
7	0x388b23f4	6.634733e-05
8	0x36105e48	2.151255e-06
9	0x38777ef7	5.9007634e-05
10	0x382de786	4.1462037e-05
11	0xb7be1346	-2.265874e-05
12	0xb7c4a1f9	-2.3440445e-05
13	0x37361d9e	1.0854941e-05
14	0xb78c7173	-1.674213e-05
15	0xb79bde39	-1.858092e-05
16	0x388053ba	6.119111e-05
17	0x38164321	3.5825306e-05
18	0xb853790f	-5.0419065e-05
19	0x38062a02	3.1987212e-05
20	0xb7473c83	-1.1875413e-05
21	0x38a1b0b0	7.709989e-05
22	0x37ab6eff	2.0436475e-05
23	0xb83c2e98	-4.4866087e-05
24	0xb803736e	-3.1340336e-05
25	0x382a596a	4.061443e-05
26	0xb8de3036	-0.00010594765
27	0x3836229f	4.3424425e-05
28	0x383118a3	4.2223033e-05
29	0xb84123a8	-4.6047993e-05
30	0x378ef4bd	1.7041684e-05
31	0xb74025bc	-1.14528775e-05

residual_blocks.0.4.weight f4 [32]
0	0x3f816eff	1.0111998
1	0x3f802abd	1.0013043
2	0x3f80a76b	1.0051092
3	0x3f808188	1.003953
4	0x3f7bac73	0.9831001
5	0x3f81bb52	1.0135291
6	0x3f80fcd2	1.0077155
7	0x3f7aa2a2	0.9790441
8	0x3f8237f5	1.0173327
9	0x3f7a6ffd	0.9782713
10	0x3f7f75b2	0.99788964
11	0x3f8326b8	1.0246191
12	0x3f7cae79	0.98703724
13	0x3f809cde	1.0047872
14	0x3f7d9eef	0.9907064
15	0x3f825782	1.0182955
16	0x3f807086	1.003434
17	0x3f80bc17	1.00574
18	0x3f7f2c14	0.9967663
19	0x3f782298	0.96927786
20	0x3f7beecc	0.9841125
21	0x3f7a4550	0.9776201
22	0x3f7f032c	0.99614215
23	0x3f80be28	1.0058031
24	0x3f79c9ac	0.9757335
25	0x3f80178a	1.0007184
26	0x3f7df161	0.9919644
27	0x3f7ce592	0.98787796
28	0x3f78f72e	0.97252166
29	0x3f794b03	0.97380084
30	0x3f7fbdd5	0.99899036
31	0x3f798353	0.9746601

residual_blocks.0.4.bias f4 [32]
0	0x3c0b773b	0.0085123135
1	0x3c7d0bdb	0.015444721
2	0x3cb4e4ba	0.022081722
3	0x3ccd43f6	0.02505682
4	0x3c2056eb	0.009786348
5	0x3cdff240	0.027337193
6	0x3c7de788	0.015497096
7	0xbc0b5d92	-0.008506196
8	0x3cc6ca71	0.024266453
9	0x3bbeb5f0	0.0058200285
10	0x3d041af9	0.032252286
11	0x3c6dfd2e	0.014525695
12	0xbb5bb24c	-0.0033523021
13	0x3ccfbe98	0.025359437
14	0xbbce296a	-0.006291558
15	0x3d17f842	0.03710199
16	0x3cf62ee1	0.03005165
17	0x3c87135d	0.016488725
18	0x3d1fe19c	0.039033517
19	0xbbf9c670	-0.0076225325
20	0x3bb6d248	0.0055792667
21	0x3cc937c7	0.02456273
22	0x3c4be0de	0.012443749
23	0x3c3f9306	0.011692768
24	0xbb637912	-0.0034709615
25	0x3c7b7872	0.015348541
26	0x3ca949f0	0.020665139
27	0x3c262879	0.010141485
28	0xbc10a481	-0.008828283
29	0x3bb0b6f3	0.005392903
30	0x3d046162	0.032319434
31	0x3c611546	0.013737982

residual_blocks.0.4.running_mean f4 [32]
0	0xbedfa6eb	-0.43682036
1	0xbe298503	-0.16554646
2	0x3d0913d7	0.033466186
3	0xbe8adda9	-0.27122238
4	0x3db6251d	0.088937975
5	0xb9c74181	-0.00038005042
6	0xbeb5ca72	-0.35506016
7	0xbb238b35	-0.00249548
8	0x3e077160	0.13226843
9	0x3d7d8fc8	0.0619047
10	0x3e09a8de	0.13443324
11	0xbe597243	-0.21234994
12	0xbd8b5534	-0.068033606
13	0x3d116d28	0.03550449
14	0xbc1bfd18	-0.0095207915
15	0xbd01d75b	-0.03169952
16	0x3e6435db	0.22286169
17	0xbe890030	-0.26757956
18	0xbd6b2c44	-0.057415262
19	0xbe47f90e	-0.195286
20	0xbe9cd8fa	-0.3063429
21	0xbe8360e9	-0.25659874
22	0xbe6cd7f6	-0.23129258
23	0xbe5c683b	-0.21524136
24	0xbe85b485	-0.26114288
25	0xbe6a4e82	-0.22881511
26	0xbeafdacc	-0.34346616
27	0xbd49a7f4	-0.04923244
28	0xbcb08bf2	-0.021551106
29	0xbea37f8b	-0.31933245
30	0xbe395fe4	-0.18102986
31	0xbe1ab0db	-0.15106528

residual_blocks.0.4.running_var f4 [32]
0	0x3e254e1a	0.16143075
1	0x3e6b14f5	0.22957213
2	0x3e8106fe	0.25200647
3	0x3e159330	0.14606929
4	0x3e2874cc	0.16450804
5	0x3e442c86	0.1915761
6	0x3e3a3fc2	0.18188384
7	0x3e39424e	0.180917
8	0x3e1e08be	0.15433022
9	0x3e804bec	0.25057924
10	0x3e8534d1	0.26016858
11	0x3e3d64b1	0.18495442
12	0x3e3bcc40	0.18339634
13	0x3e20b29b	0.15693133
14	0x3e9c4aee	0.30525917
15	0x3e2c431d	0.16822477
16	0x3e39f7b6	0.181609
17	0x3e2b3ff3	0.16723613
18	0x3e302b34	0.1720398
19	0x3e01c9a3	0.12674575
20	0x3e22f7d1	0.15914847
21	0x3e2aa4c8	0.16664422
22	0x3e484dc2	0.19560912
23	0x3e3e928d	0.18610592
24	0x3e5cf76f	0.21578763
25	0x3e2efd6d	0.17088862
26	0x3e01167a	0.1260623
27	0x3e12f157	0.14349876
28	0x3e2d12bf	0.16901682
29	0x3e61ac51	0.2203839
30	0x3e377c73	0.17918567
31	0x3e33d58c	0.1756193

residual_blocks.1.0.weight f4 [32, 32, 3, 3]
0	0x3b7695c6	0.0037625893
1	0x3d96520e	0.073398694
2	0x3ce7a64f	0.028277544
3	0x3c267ab4	0.010161091
4	0xbb950f22	-0.004548923
5	0xbceadb67	-0.028669072
6	0xbcf90e6c	-0.030402385
7	0xbb55a539	-0.00325997
8	0x3cf4bb24	0.029874392
9	0xbc8fbf48	-0.017547265
10	0x3d0d4c66	0.034496687
11	0x3d55c3c6	0.052188657
12	0x3d39146c	0.04518549
13	0x3d389573	0.0450644
14	0x3c5e11ba	0.013554031
15	0xbd681d3f	-0.056668516
16	0x3d6937e3	0.056938063
17	0x3d0af375	0.033923585
18	0xbb79b0ee	-0.0038099843
19	0x3d5d04ae	0.05395954
20	0x3cf0409f	0.029327689
21	0x3dadad60	0.08480334
22	0xbc62f7a3	-0.0138529865
23	0xbd512e5b	-0.0510696
24	0xbd91d2a8	-0.071202576
25	0x3d4ca30b	0.049960177
26	0x3c855aec	0.016278706
27	0x3c4822ba	0.012215311
28	0xbd50e164	-0.0509962
29	0xbd405f6f	-0.046966013
30	0xbd286b1a	-0.041117765
31	0xbc449ee1	-0.01200077
32	0xbd2c8c12	-0.04212577
33	0xbd59b08b	-0.05314688
34	0x3d1afaea	0.037836947
35	0x3cf2b911	0.029629262
36	0xbce55194	-0.027993001
37	0xbb0ca549	-0.0021460822
38	0x3d1f0122	0.03881944
39	0xbc20a60a	-0.009805212
40	0x3d5d35b3	0.05400629
41	0x3d31e59d	0.043431867
42	0xbbab9b17	-0.005236994
43	0x3c934ce1	0.017980995
44	0xbd82782f	-0.063705795
45	0x3d03cd3b	0.032178145
46	0xbba45107	-0.005014542
47	0xbd8dfd56	-0.069330856
48	0x3c82f176	0.015984278
49	0xbc16915b	-0.009189929
50	0x3d1459e6	0.036218546
51	0x3cbcee5d	0.02306288
52	0x3d644463	0.05572928
53	0xbcb5e57d	-0.022204155
54	0x3d51df0e	0.051238112
55	0x3cd65cf3	0.026167369
56	0x3d0236f0	0.031790674
57	0x3c1cfde6	0.0095820185
58	0x3cc03042	0.023460511
59	0x3da728cf	0.081620805
60	0xbc0b8eeb	-0.008517961
61	0x3c305f5f	0.010764926
62	0xbcb32c2e	-0.021871652
63	0x3b4c92f5	0.0031215523
64	0xbd6f6803	-0.058448803
65	0x3d7a93cd	0.06117611
66	0xbc03bdf0	-0.00804089
67	0xbd23cd2f	-0.0399906
68	0x3c80fc23	0.015745228
69	0xbcbf0c57	-0.023321314
70	0xbd2bdb79	-0.041957352
71	0xbd328642	-0.04358507
72	0xbd6deff2	-0.058090158
73	0x3b3bf3ab	0.0028679173
74	0xbd10aa64	-0.035318747
75	0x3c8448b3	0.016147947
76	0xbd16aef4	-0.036787942
77	0x3ccd29e5	0.025044391
78	0xbd0d3b07	-0.03448012
79	0xbc9a1f5f	-0.018813787
80	0x3c167f0c	0.009185564
81	0x3d51f4a3	0.051258694
82	0xbcc2df6b	-0.023788175
83	0xbd5dac1c	-0.054119214
84	0x3c84e5e2	0.016222898
85	0x3c9f7184	0.019463308
86	0xbc39481f	-0.011308699
87	0xbd196829	-0.03745285
88	0x3cbefb07	0.023313059
89	0xbcd64110	-0.026154071
90	0x3d09b3f0	0.033618867
91	0x3d782858	0.06058535
92	0x3d59e41d	0.05319606
93	0xbc64fb90	-0.013975993
94	0x3bad80d8	0.0052949004
95	0x3c781aad	0.015143079
96	0xbd629197	-0.055314627
97	0x3b93c41a	0.004509461
98	0xbd5bfdcf	-0.053708848
99	0x3d5a8eb3	0.053358745
100	0x3bdf7d06	0.006820324
101	0xbc384f97	-0.011249444
102	0xbd85f4ca	-0.065408304
103	0x3c08ac0b	0.0083417995
104	0x3d393c50	0.045223534
105	0xbd424401	-0.047428135
106	0xbbc8eca1	-0.006131724
107	0xbd2811bb	-0.041032534
108	0x3b974f9f	0.004617646
109	0xbd47060e	-0.04858976
110	0xbc82032f	-0.015870659
111	0xbd1379a0	-0.036004663
112	0xbc9ce187	-0.019150509
113	0xbc610c01	-0.013735772
114	0x3d6ef95d	0.05834328
115	0xbcba6ca2	-0.022756878
116	0x3abd589a	0.0014445961
117	0x3c9e1460	0.019296825
118	0x3b2d8ebc	0.0026482781
119	0xbd129b01	-0.035792354
120	0x3c2986d5	0.010347088
121	0xbc1005ea	-0.0087904725
122	0xbd1d5995	-0.03841551
123	0x3d7bec5e	0.061504714
124	0x3d63ec38	0.055645198
125	0x3c7ec930	0.0155508965
126	0x3c89ef7f	0.016837833
127	0x3d737747	0.059439924
128	0x3d2e5330	0.042559803
129	0x3bb9046b	0.0056462786
130	0x3c8cf211	0.01720527
131	0xbd52998f	-0.051415976
132	0x3beb2e22	0.0071771303
133	0x3d1c2a86	0.03812649
134	0x3cd28201	0.025696756
135	0xbac464d0	-0.0014983658
136	0xbcc8f156	-0.02452914
137	0x3d2e9dcf	0.042630967
138	0x3cd81231	0.026375862
139	0x3d0eefc4	0.034896627
140	0xbd2c0bc0	-0.042003393
141	0xbd443b83	-0.047908317
142	0xbb6b5f5b	-0.003591499
143	0x3d733b06	0.05938246
144	0xbd873761	-0.066023596
145	0xbd6e1686	-0.05812695
146	0x3d5769bc	0.05259107
147	0xbbe476b3	-0.006972158
148	0xbcc59963	-0.024120992
149	0xbb29e719	-0.0025925098
150	0x3d075c38	0.03304693
151	0x3ce76358	0.028245613
152	0x3d4b261f	0.049596902
153	0x3d93c842	0.072159305
154	0x3d396b0f	0.045268115
155	0xbd01b417	-0.031665888
156	0xbd0807a8	-0.033210427
157	0x3d8dee60	0.06930232
158	0x3d1086fe	0.03528499
159	0x3cbee9bb	0.02330481
160	0x3b9abcfd	0.004722236
161	0x3d4f3ef8	0.05059716
162	0xbd115f00	-0.03549099
163	0xbbaf0fcf	-0.0053424607
164	0x3d368e44	0.04456927
165	0xbd5602f3	-0.052248906
166	0xbc1a08bb	-0.009401496
167	0x3ccb757d	0.024836296
168	0xbac045c2	-0.0014669227
169	0x3c654c4c	0.013995241
170	0x3d4f4602	0.050603874
171	0x3d37e7c9	0.044898782
172	0x3be71bce	0.007052875
173	0x3caec62e	0.021334734
174	0x3c252701	0.0100801
175	0xbd005074	-0.031326726
176	0x3bcf8832	0.0063333744
177	0xbd1bd913	-0.038048815
178	0x3c3e73d6	0.011624297
179	0x39e8a6f9	0.00044374893
180	0xbd0238a5	-0.0317923
181	0xbaaebdd5	-0.0013331721
182	0x3b97bffb	0.00463104
183	0x3d135108	0.03596595
184	0xbd54bb2e	-0.05193632
185	0xbd21cd79	-0.039502595
186	0x3c919e1b	0.017775586
187	0x3b4caf07	0.0031232254
188	0x3cbf11c1	0.023323895
189	0x3c28c06a	0.010299781
190	0x3bc1a8fc	0.005910037
191	0xbab72d61	-0.0013975316
192	0xbc519151	-0.012790994
193	0xbd8176da	-0.06321497
194	0xbd8ffe20	-0.07030892
195	0x3ce4a64c	0.027911328
196	0x3d7e72d1	0.062121216
197	0x3b369d40	0.0027864724
198	0xbb92a553	-0.0044752746
199	0xbc8e576e	-0.017375674
200	0xbcf9fc36	-0.030515771
201	0x3cbc3550	0.02297464
202	0xbd69077e	-0.05689191
203	0xb9c136e9	-0.0003685274
204	0x3c470c04	0.012148861
205	0x3d37a8f8	0.044838876
206	0xbd6cb13c	-0.05778621
207	0x3d38be55	0.04510339
208	0x3ae2da3e	0.0017307473
209	0x3c2bc358	0.010483585
210	0xbd2fbfef	-0.04290765
211	0xbc5a9c86	-0.013342982
212	0xbd73de97	-0.05953845
213	0x3cfc163c	0.03077232
214	0x3a189736	0.0005820872
215	0x3d2b73a4	0.04185833
216	0xbd44c8c8	-0.048043042
217	0x3c9204ba	0.01782452
218	0xbd86abcf	-0.06575739
219	0xbc7a6cd7	-0.0152847385
220	0xbd4ce112	-0.05001933
221	0xbd3d43ae	-0.046207123
222	0xbb91fe06	-0.004455331
223	0x3d707c66	0.058712386
224	0xbd047fb9	-0.03234837
225	0xbd21587e	-0.039391033
226	0x3bdf7164	0.006818937
227	0xbbbd4bad	-0.0057768435
228	0xbc412d28	-0.011790551
229	0xbd25c23a	-0.040468432
230	0xbd7aa425	-0.061191697
231	0xbbe482b5	-0.0069735893
232	0x3d4e585d	0.05037724
233	0xbb72d864	-0.0037055248
234	0xbd5cd3f0	-0.053913057
235	0xbd2907ac	-0.041267082
236	0xbd3724d5	-0.04471286
237	0xbcfd0c40	-0.03088963
238	0x3cdffa66	0.027341079
239	0x3bde89c3	0.006791325
240	0xbbd7bb9b	-0.0065836436
241	0x3d3343d1	0.043765847
242	0xbc7465b0	-0.014916822
243	0xbd8924e9	-0.06696493
244	0x3c041876	0.008062473
245	0x3bba685b	0.0056887097
246	0xbc8d7f3a	-0.01727258
247	0x3d28171a	0.041037656
248	0xb93cd1b5	-0.00018007199
249	0xbce27ef2	-0.027648423
250	0x3d7a3f82	0.061095722
251	0xbd054e24	-0.032545224
252	0xbd373809	-0.044731174
253	0xb9958657	-0.00028519586
254	0x3d844cfa	0.064599946
255	0xbc1e2d27	-0.00965432

residual_blocks.1.0.bias f4 [32]
0	0x379bf711	1.859249e-05
1	0xb75d9082	-1.3206272e-05
2	0xb82d3c7e	-4.1302752e-05
3	0xb704a6b2	-7.906625e-06
4	0x36f35bcd	7.2526514e-06
5	0x37814a05	1.5412466e-05
6	0xb869485f	-5.561893e-05
7	0xb871d071	-5.7653004e-05
8	0x36622eaf	3.3703798e-06
9	0x380b2560	3.317499e-05
10	0x37ad752a	2.0677766e-05
11	0x374cb7e7	1.2202166e-05
12	0x37b1485d	2.1133741e-05
13	0x375daf38	1.3213423e-05
14	0x36fb00b7	7.480466e-06
15	0x37a73ff8	1.993774e-05
16	0x3826a958	3.9735198e-05
17	0x37400bee	1.1446869e-05
18	0xb8120872	-3.4816978e-05
19	0x380e8704	3.398118e-05
20	0x37ffa1fd	3.04738e-05
21	0x38443e64	4.6788147e-05
22	0x37981826	1.8131057e-05
23	0xb6e8bfe8	-6.9364796e-06
24	0x388f2a7c	6.826685e-05
25	0xb6838f69	-3.9207994e-06
26	0xb87ca8aa	-6.0238563e-05
27	0x381c17e2	3.721554e-05
28	0xb71bc74a	-9.2851205e-06
29	0xb7a16a82	-1.9242292e-05
30	0xb853c8d3	-5.0493352e-05
31	0xb611fe51	-2.1754715e-06

residual_blocks.1.1.weight f4 [32]
0	0x3f796e5d	0.97434026
1	0x3f7c30e3	0.98512095
2	0x3f7c084c	0.9845016
3	0x3f7ed02a	0.99536383
4	0x3f7be820	0.9840107
5	0x3f798aa0	0.9747715
6	0x3f7bfe31	0.9843474
7	0x3f7f33ae	0.9968823
8	0x3f80a5ff	1.0050658
9	0x3f7a3c0d	0.9774788
10	0x3f80613d	1.0029675
11	0x3f8023de	1.0010946
12	0x3f80a12e	1.0049188
13	0x3f7d79e0	0.9901409
14	0x3f7f4ddb	0.99728173
15	0x3f810597	1.0079831
16	0x3f7ea04e	0.99463356
17	0x3f7766e6	0.96641386
18	0x3f78ff7c	0.9726484
19	0x3f82e7db	1.0227007
20	0x3f80d6f1	1.0065595
21	0x3f7f4e76	0.99729097
22	0x3f7cefd9	0.9880348
23	0x3f80e45e	1.0069692
24	0x3f809893	1.0046562
25	0x3f7bc5ce	0.983487
26	0x3f7614a8	0.9612527
27	0x3f7e2712	0.99278367
28	0x3f774c46	0.9660076
29	0x3f8052ad	1.0025231
30	0x3f863a3a	1.0486519
31	0x3f7ba96d	0.983054

residual_blocks.1.1.bias f4 [32]
0	0xbc76e27d	-0.015068647
1	0x3ba9cb80	0.00518173
2	0x3cbff56b	0.023432454
3	0x3b9cfb84	0.004790725
4	0x3aedaec8	0.0018133754
5	0xbbd831b7	-0.0065977233
6	0xbc0a2c3b	-0.008433397
7	0xbc07a845	-0.008279865
8	0x3c8cb8cc	0.017177962
9	0xb9cb9d4a	-0.00038836367
10	0x3cb6718d	0.022270942
11	0x3c9be375	0.019029358
12	0xbbc6a7b4	-0.0060624722
13	0xbbfc9683	-0.007708372
14	0x3cdec2fc	0.027192585
15	0xbbb44485	-0.005501332
16	0x3afdbe6d	0.001935912
17	0xbbe01cbb	-0.0068393624
18	0xbc8c42b9	-0.01712166
19	0x3d0ba2a5	0.034090657
20	0x3c4c4d76	0.01246964
21	0x3c4382ef	0.0119330725
22	0x3ceec1f6	0.029145222
23	0x3c4b61c3	0.012413445
24	0x3c1ba50e	0.009499801
25	0xbb2ba2fa	-0.002618967
26	0xbc913911	-0.017727407
27	0x3bad1781	0.005282343
28	0x3b0053d8	0.0019581225
29	0x3ce9e25d	0.028550321
30	0x3d568947	0.05237701
31	0x3caa3d7f	0.020781277

residual_blocks.1.1.running_mean f4 [32]
0	0x3d91277f	0.070876114
1	0x3e9ea53f	0.30985448
2	0xbed0d1f6	-0.40785187
3	0xbe9dd8d0	-0.30829477
4	0xbe9c4af9	-0.3052595
5	0x3e0a8ccf	0.13530277
6	0xbd085590	-0.033284724
7	0xbea16b17	-0.31527016
8	0xbe7c3ce2	-0.246326
9	0xbe694933	-0.2278183
10	0x3e86f07c	0.2635535
11	0xbe496a30	-0.19669414
12	0xbdb4d38f	-0.08829414
13	0x3e26fe36	0.16307911
14	0x3e0b7c09	0.13621534
15	0xbef5c183	-0.479992
16	0x3e763cc8	0.24046624
17	0xbe1153eb	-0.14192168
18	0xbea7b515	-0.32755342
19	0x3e6e4ed4	0.23272258
20	0xbe154bb4	-0.1457966
21	0x3df67483	0.120339416
22	0xbe14722c	-0.14496678
23	0xbefcad7b	-0.49351105
24	0x3b3287d1	0.0027241597
25	0xbe79198d	-0.24326153
26	0xbe0645fd	-0.13112636
27	0x3e0d6192	0.13806751
28	0x3d67c766	0.056586646
29	0xbe389236	-0.18024525
30	0xbe849b99	-0.25899962
31	0xbc2f84a2	-0.0107127745

residual_blocks.1.1.running_var f4 [32]
0	0x3e699829	0.2281195
1	0x3e556cb5	0.2084225
2	0x3e46db9d	0.19419713
3	0x3e4b5e9a	0.19860306
4	0x3e5fb1e6	0.21845207
5	0x3e82d016	0.25549382
6	0x3e39c40d	0.18141194
7	0x3e4c6c09	0.19963087
8	0x3e3623bd	0.1778707
9	0x3e72988d	0.23691006
10	0x3e3cfc9e	0.18455741
11	0x3e8dd55b	0.2770184
12	0x3e66e7d0	0.22549367
13	0x3e464c67	0.19365083
14	0x3e3d6f47	0.1849948
15	0x3e6dfdd7	0.23241363
16	0x3e44fd3a	0.19237223
17	0x3e541380	0.20710564
18	0x3e74098e	0.2383177
19	0x3e1f75c9	0.15572275
20	0x3e63ebb9	0.2225789
21	0x3e2f2834	0.1710518
22	0x3e69c05c	0.22827286
23	0x3e494a30	0.19657207
24	0x3e47ddda	0.19518223
25	0x3e73222b	0.23743503
26	0x3e5238fe	0.20529553
27	0x3e5fd68e	0.2185919
28	0x3e62cb1b	0.22147791
29	0x3e63b9ab	0.22238795
30	0x3e412cfe	0.1886482
31	0x3ea74cd4	0.32675803

residual_blocks.1.3.weight f4 [32, 32, 3, 3]
0	0x3d8690ba	0.06570573
1	0xbce13078	-0.027488932
2	0xbd422912	-0.04740245
3	0xbcfd2ddc	-0.030905657
4	0xbd44efad	-0.048080135
5	0xbca6abfb	-0.020345679
6	0x3da14004	0.07873538
7	0x3d84ab0b	0.06477936
8	0x3c8ca5f7	0.017168982
9	0xbd3f3e52	-0.046690293
10	0xbd1c9254	-0.038225487
11	0xbd62f886	-0.05541279
12	0xbce865f4	-0.028368928
13	0xbd0744d3	-0.03302462
14	0x3afd2417	0.0019313124
15	0xbd051cf4	-0.032498315
16	0x3c883096	0.01662473
17	0xbc523b9d	-0.012831596
18	0xbc86172a	-0.016368467
19	0xbca4285f	-0.020038782
20	0x3d101b21	0.035182122
21	0xbd02da32	-0.03194637
22	0xbd3bcd38	-0.04585001
23	0x3d3fbcb6	0.04681083
24	0x3cce8e87	0.025214447
25	0x3d927b39	0.07152409
26	0x3d838fd4	0.064239174
27	0xbcef5b5b	-0.029218366
28	0xbba72e3f	-0.0051019485
29	0x3cf585b9	0.02997099
30	0x3d3fb4d4	0.04680331
31	0x3be9e6e5	0.0071381205
32	0xbbc5970c	-0.006029969
33	0xbce6ead9	-0.028188156
34	0x3c28faca	0.010313699
35	0xbcc7fc99	-0.02441244
36	0xbbec2c14	-0.007207403
37	0x3d5dacd6	0.054119907
38	0xbd368524	-0.044560567
39	0x3ca97131	0.020683857
40	0xbd75311e	-0.059861295
41	0x3c01bcf9	0.00791859
42	0xbc63d2ed	-0.013905269
43	0xbc3de1a0	-0.011589438
44	0xbd3ac0f3	-0.045594167
45	0x3d363120	0.044480443
46	0x3b5ad86b	0.0033393155
47	0x3d016a26	0.03159537
48	0xbc0ad674	-0.008473981
49	0xbd025c3e	-0.03182625
50	0xbc613615	-0.013745804
51	0x3d5e9877	0.05434462
52	0xbb582c2f	-0.003298532
53	0xbd429f2f	-0.04751509
54	0x3c9bf09d	0.019035632
55	0x3d96654a	0.07343538
56	0xbd03edcc	-0.032209203
57	0x3c317f3c	0.010833558
58	0xbcb53c57	-0.022123499
59	0x3c925819	0.017864274
60	0xbc990e92	-0.018683705
61	0xbd12935e	-0.03578507
62	0x3d45589e	0.048180215
63	0x3d49c912	0.04926402
64	0xbc7d354d	-0.015454602
65	0x3ce304db	0.027712276
66	0x3bda60f4	0.0066643897
67	0xbd620a7e	-0.055185787
68	0xbce7d2af	-0.028298704
69	0xbd93abba	-0.072104886
70	0x3d257a0b	0.040399592
71	0xbc6cad1f	-0.014445572
72	0x3ca9f012	0.020744357
73	0x3c4a3bf1	0.012343393
74	0xbc9f5502	-0.019449715
75	0x3d74efcd	0.059799004
76	0xbd8dcc5e	-0.069237456
77	0x3d32acd8	0.043621868
78	0x3c158a3d	0.009127197
79	0x3d36876a	0.044562735
80	0xbbcdd135	-0.006281043
81	0xbd0fa034	-0.03506489
82	0xbc42d8dd	-0.011892525
83	0xbd432416	-0.047641836
84	0xbd1d98ee	-0.038475923
85	0x3ba763f4	0.005108351
86	0x3d03cae6	0.03217592
87	0x3ccbaa85	0.024861583
88	0x3d299147	0.041398313
89	0x3d44f3c8	0.04808405
90	0xbd2afdbd	-0.04174589
91	0xbcb5f2f0	-0.022210568
92	0xbd3c0c79	-0.045910332
93	0xbd3c2b47	-0.04593971
94	0xbd09adfc	-0.03361319
95	0x3d0556ed	0.032553602
96	0xbac382bd	-0.0014916282
97	0xbb40271d	-0.0029320188
98	0x3a0c0cc6	0.00053424796
99	0x3d3bd42e	0.045856647
100	0x39ff6dd1	0.0004871921
101	0xbd1b9985	-0.037988205
102	0xbca8323f	-0.020531772
103	0x3c0affb4	0.008483816
104	0xb94151df	-0.00018436414
105	0xbd33cd48	-0.043896943
106	0x3a07fbc9	0.000518736
107	0x3c952054	0.018203892
108	0xbc9afedd	-0.018920356
109	0xbd451a2e	-0.04812067
110	0xbcd674d2	-0.026178751
111	0x3b2140a0	0.002460517
112	0x3be66eee	0.007032267
113	0xbd7125f7	-0.058874097
114	0x3cb16964	0.0216567
115	0xbd20263e	-0.03909897
116	0x3baa4031	0.0051956405
117	0xba474f50	-0.0007603066
118	0xbd906db3	-0.070521735
119	0xbd24d0e2	-0.04023827
120	0xbba1538d	-0.00492329
121	0x3cff6a53	0.031178629
122	0x3ceaf2d4	0.028680243
123	0xbbb4ba3e	-0.005515366
124	0xbd5806c2	-0.05274082
125	0xbcae3811	-0.021266969
126	0xbd02d586	-0.031941913
127	0xbcee2382	-0.029069666
128	0x3d1ffc9a	0.03905926
129	0x3ccfe329	0.025376873
130	0x3c6c8172	0.014435159
131	0xbba4da7c	-0.005030928
132	0xb90a240e	-0.00013174137
133	0xbce2aaa6	-0.027669262
134	0xbd2ab5c0	-0.041677237
135	0xbd2d9d6d	-0.04238646
136	0x3d812702	0.06306268
137	0xbd3f4823	-0.046699654
138	0x3ce61a8b	0.028088829
139	0x3d32de3b	0.043668967
140	0x3cdb6c61	0.026785078
141	0x3cc9a4cc	0.024614714
142	0xbc1c7037	-0.0095482385
143	0xbc68d1f6	-0.014210215
144	0xbd350830	-0.04419726
145	0x3c7d2b2f	0.01545219
146	0xbd8141d9	-0.063113876
147	0x3d6c57ac	0.057700798
148	0xbcb5408c	-0.022125505
149	0xbc68e9f1	-0.014215932
150	0x3cd0d9bb	0.025494447
151	0x3caafa69	0.020871358
152	0xbd22dd67	-0.039761927
153	0x3c412118	0.011787675
154	0x3d5e3e56	0.054258667
155	0xbd838df2	-0.06423558
156	0x3d8eceb2	0.06973018
157	0xbd56ba6a	-0.052423872
158	0xbadb12eb	-0.0016714012
159	0x3cb2b590	0.021815091
160	0xbd3238c0	-0.043511152
161	0x3d8c36a4	0.06846359
162	0x3ca78d15	0.020453015
163	0x3afce630	0.0019294675
164	0xbcc89283	-0.024483925
165	0xbc8af0da	-0.01696055
166	0x3d5d56b8	0.05403778
167	0xbcf0b061	-0.029380979
168	0xbb621a7d	-0.0034500652
169	0xbd1b1c56	-0.03786882
170	0x3d2021bf	0.039094683
171	0xbd0a4736	-0.03375932
172	0x3d4129a2	0.047158845
173	0xbb4e9a93	-0.003152524
174	0xbc9f06bf	-0.019412396
175	0xbced9653	-0.029002344
176	0xbcd53fa5	-0.026031325
177	0xbd161e67	-0.036650088
178	0xbd8426f8	-0.06452745
179	0xbd88a2b9	-0.06671662
180	0xbcadfda1	-0.021239104
181	0x3ca66d0e	0.020315673
182	0xbc42b76c	-0.0118845515
183	0x3d66735a	0.05626235
184	0x3d2e46ad	0.04254787
185	0xbd8c9b43	-0.06865551
186	0x3c4f67be	0.012659011
187	0xbd34cad7	-0.044138756
188	0x3bc3687c	0.0059633832
189	0xbd473682	-0.048635967
190	0xbaea37de	-0.0017869433
191	0xbd098f0c	-0.033583686
192	0xbd7d6100	-0.061860085
193	0x3cf5d387	0.03000809
194	0x3d50600e	0.050872855
195	0xbc6662c9	-0.014061638
196	0x3d130ca2	0.03590072
197	0xbadb9659	-0.0016753181
198	0x3d802fbf	0.06259107
199	0xbd1c26b9	-0.038122866
200	0x3d55f4f8	0.052235574
201	0x39d55782	0.00040691724
202	0xbd2fbdc6	-0.04290559
203	0xbd4ecea0	-0.05049002
204	0xbd9c2601	-0.07624436
205	0x3bd51e2c	0.006503841
206	0xbd44f313	-0.048083376
207	0x3d7d3696	0.061819635
208	0xbbf7579a	-0.0075482847
209	0xba97cc37	-0.0011581247
210	0x3c90cb82	0.017675165
211	0x3c8cc337	0.01718293
212	0xbcc49f40	-0.024001718
213	0xbd38e3d8	-0.045139164
214	0x3cc28003	0.023742681
215	0x3d1d410d	0.038392115
216	0x3d27b55b	0.04094444
217	0x3c305e61	0.010764689
218	0xbc990106	-0.018677246
219	0xbd1f39b6	-0.038873397
220	0x3ce38e71	0.027777882
221	0x3c1479b4	0.009062219
222	0x3c0843eb	0.008316974
223	0x3baf1f4d	0.0053443075
224	0x3d6dc221	0.058046464
225	0x3d1ef9c8	0.03881243
226	0xbce5043e	-0.027956124
227	0x3d2e6bc1	0.04258323
228	0x3c0a08ed	0.00842498
229	0x3cdf9c94	0.027296342
230	0xbb811677	-0.0039394456
231	0x3cf2439f	0.02957326
232	0xbcb0fb41	-0.021604182
233	0xbd046f24	-0.032332554
234	0xbd5db2a9	-0.05412546
235	0x3d3c1d16	0.045926176
236	0x3d68738f	0.05675083
237	0x3c016ed4	0.007899959
238	0x3d02e07c	0.031952366
239	0xbcacc5df	-0.021090446
240	0xbb99a2fb	-0.0046886182
241	0x3d3b980b	0.045799296
242	0x3c1429a8	0.009043135
243	0x3a72f4ee	0.0009268065
244	0x3bff3be0	0.00778912
245	0xbd812b18	-0.063070476
246	0x3cea36ef	0.028590648
247	0x3d7914ec	0.06081097
248	0xbc5cf4a4	-0.013486061
249	0xbd02179c	-0.031760797
250	0xbcc5895f	-0.024113355
251	0x3d5f42b2	0.054506965
252	0x3d56b49f	0.052418347
253	0x3b929b31	0.0044740667
254	0xbc7668bc	-0.015039619
255	0x3be8eb40	0.007108122

residual_blocks.1.3.bias f4 [32]
0	0xb7f085e4	-2.8672577e-05
1	0xb85f88e2	-5.3294825e-05
2	0x3828157f	4.007434e-05
3	0xb62d8a74	-2.58596e-06
4	0xb789ad54	-1.6412385e-05
5	0xb88a80f9	-6.604376e-05
6	0x38947ee6	7.0808266e-05
7	0x37bd70bc	2.2583052e-05
8	0x37cec485	2.4648625e-05
9	0x37776b51	1.4747334e-05
10	0x384bfd5f	4.863494e-05
11	0x3788869a	1.6275142e-05
12	0x38b112a1	8.4434876e-05
13	0xb817a3c7	-3.6153735e-05
14	0x37b1f1e3	2.1212682e-05
15	0x375505a1	1.26971e-05
16	0xb8887fd2	-6.508794e-05
17	0x366af46d	3.5010992e-06
18	0xb81a9a50	-3.6860176e-05
19	0x38664038	5.489608e-05
20	0xb7f7c72d	-2.9537443e-05
21	0x388d820e	6.7476285e-05
22	0xb873d32e	-5.813239e-05
23	0x38289497	4.0192706e-05
24	0xb781f6b1	-1.5492873e-05
25	0x37bd72ee	2.2584074e-05
26	0x37a49ae5	1.9622452e-05
27	0xb7afe164	-2.0966581e-05
28	0xb8ab8505	-8.178692e-05
29	0x38527975	5.0181017e-05
30	0x371d495d	9.37501e-06
31	0xb7d7de17	-2.5733416e-05

residual_blocks.1.4.weight f4 [32]
0	0x3f7f20cf	0.99659437
1	0x3f7a2abb	0.9772145
2	0x3f7e5b80	0.9935837
3	0x3f7ac6dd	0.9795969
4	0x3f78c3bb	0.9717366
5	0x3f73feaa	0.9531046
6	0x3f7ac33a	0.9795414
7	0x3f7ad49b	0.9798066
8	0x3f7da90c	0.9908607
9	0x3f763139	0.9616886
10	0x3f7e5f87	0.99364513
11	0x3f7b942b	0.9827296
12	0x3f82039c	1.0157351
13	0x3f7ddbdf	0.9916362
14	0x3f7fd40e	0.99932945
15	0x3f7ef02d	0.9958523
16	0x3f7fde65	0.9994872
17	0x3f74c830	0.9561796
18	0x3f815ab6	1.0105808
19	0x3f7f7448	0.99786806
20	0x3f77e211	0.96829325
21	0x3f7dd427	0.99151844
22	0x3f7dc953	0.9913532
23	0x3f805e22	1.0028727
24	0x3f7956a3	0.9739782
25	0x3f7e40d4	0.9931767
26	0x3f7510ac	0.95728564
27	0x3f808888	1.0041666
28	0x3f7eb3ee	0.994933
29	0x3f74252a	0.9536921
30	0x3f79ca0a	0.9757391
31	0x3f7d4b60	0.9894314
